实验报告/hw10/hw10_21307303_liuzhuoyi.pth (torch, 20919 bytes, 6 tensors)

nw.0.weight f4 [64, 4]
000000 75 e3 71 bf 19 fb 8e be ce 26 cb 3f cd 0b 31 3e
       -0.94487697 -0.27925947 1.5871217 0.17289658
000010 9d c8 69 be b9 27 c1 bc 60 33 86 be e9 ab aa be
       -0.22830434 -0.023578512 -0.2621107 -0.33334282
000020 b4 3f cc 3f 8c 02 58 3f d6 bf 16 3f a6 08 10 3f
       1.5956941 0.84378886 0.5888647 0.56263196
000030 66 d6 83 3f 7a b6 56 3e 07 4b fd 3e 88 9e 11 3e
       1.0299804 0.20968047 0.49471304 0.14220631
000040 3f e9 62 be 97 fd e2 3e dc e1 02 3f 3a 1f 22 bd
       -0.22159289 0.443341 0.51125884 -0.03958056
000050 8c f1 b7 be 94 49 3a 3e f6 6b f8 bc bb a4 58 be
       -0.35926473 0.1819213 -0.030324917 -0.2115659
000060 3d 33 8b be 4d 6b 04 3f 1b 40 0c 40 f2 f0 8d 3e
       -0.2718753 0.5172623 2.1914127 0.2772289
000070 f2 c7 3c bf ac 59 8d be cd 2c 86 3f 2a c7 a3 3e
       -0.7374259 -0.27607477 1.0482422 0.31987888
000080 8d 7c 2e bf e5 54 dc bd dc 52 7e 3f f2 9c 33 3e
       -0.681588 -0.1075838 0.99345183 0.17540339
000090 7a 5a f0 3e f7 66 05 bf 0b a9 4d bf a6 9c e8 be
       0.46944028 -0.52110237 -0.80336064 -0.45432013
0000a0 0e 3b 68 bf 89 fa 75 bf 26 d0 69 bf cc c0 18 bf
       -0.9071511 -0.9608541 -0.91333234 -0.59669185
0000b0 84 89 ac bd b9 66 b7 3e d7 6d 69 3e b8 17 79 3e
       -0.084246665 0.3582056 0.22795807 0.24325454
0000c0 60 f2 f0 be 82 48 72 be 60 51 4b bf ce 14 3a be
       -0.47059917 -0.23660472 -0.79421043 -0.18171999
0000d0 09 37 18 bf 00 7b 8c be 07 0f 5c bf 4f 32 ff bd
       -0.59458977 -0.27437592 -0.8596043 -0.124607675
0000e0 cd 3c 4e bb ac 77 a0 3e 69 b4 8e 3f 7f 9d e8 3e
       -0.0031469346 0.31341302 1.1148807 0.4543266
0000f0 91 07 44 bd cf 35 3c 3e 53 c1 c8 3f 88 18 0e 3f
       -0.04785878 0.18379901 1.5683998 0.5550618
000100 22 43 81 3d b7 bf 8c be 94 5b 01 bf d4 35 26 be
       0.06311633 -0.27490017 -0.5053036 -0.16231471
000110 eb 1c 15 3e 2f cd 83 bd 58 21 3c 3b 95 dd 99 bd
       0.14561813 -0.0643562 0.0028706398 -0.075129665
000120 1a 82 c1 be c1 bd 0f bf 1a 69 b4 bf ff 6c d9 be
       -0.37794572 -0.56148916 -1.4094574 -0.4246597
000130 5e ca 83 be 39 3d 16 3f 60 9e f3 3f c5 05 23 3f
       -0.2574033 0.5868717 1.9032707 0.6368068
000140 96 42 12 3f f7 21 1d 3f 3e 0f c9 3f 48 e8 db 3e
       0.5713285 0.6137995 1.5707777 0.42950654
000150 a7 5e 91 be f6 1e 46 3e 11 3e 18 3f 32 c3 c7 3e
       -0.28392527 0.19347748 0.59469706 0.3901611
000160 34 c1 96 3d 7f 85 a9 bc 0f 24 ab 3d 0f ab 9b 3e
       0.07361069 -0.020693539 0.08356487 0.30403945
000170 c2 88 15 bf a0 83 51 3e 07 e4 31 3f 80 1f bc 3e
       -0.584118 0.20460367 0.6948857 0.36742783
000180 7c 81 05 3f 89 ae 67 3f 7a 3b 9f 3f 7c 49 08 3f
       0.521507 0.90500695 1.2440026 0.5323713
000190 47 d0 ce be 3e 87 5f 3d 97 64 16 40 32 05 85 3e
       -0.40393278 0.054572336 2.3498895 0.25980526
0001a0 52 44 80 3f 17 7d 56 3f 30 8c db 3f 3d d6 22 3f
       1.002085 0.8378462 1.7152157 0.6360815
0001b0 70 e1 b6 3e 7d 0b 86 bd 68 5f 05 bf 87 e2 a3 bd
       0.3571887 -0.0654516 -0.52098703 -0.08002191
0001c0 37 26 c7 3e f4 73 13 3e 1c e6 9b 3e 4c ce e0 3c
       0.38896343 0.14399701 0.30448997 0.02744212
0001d0 92 5a 4e 3d 79 32 17 bf 38 55 7d bf 29 39 2d bf
       0.050379343 -0.5906139 -0.9895816 -0.67665344
0001e0 56 47 9a bf a4 83 3d bf f2 df 67 bf ae 25 0f bf
       -1.205302 -0.7402899 -0.9057609 -0.5591687
0001f0 ca 69 f7 be a5 95 20 bf 8b 7a 0d 3e 67 f6 da 3d
       -0.48322898 -0.6272834 0.13816278 0.10691529
000200 4c 7e 73 3e 52 5d 27 3f ae 85 63 3e 99 a3 c2 3e
       0.23778647 0.6537677 0.22218964 0.3801544
000210 24 e1 8e be a8 1a d4 3e e5 6e 99 3f 06 bb 5c 3d
       -0.27906144 0.41426587 1.1986967 0.053889297
000220 a2 98 bb be b9 e0 a6 be 6f 73 0c c0 7b 66 df be
       -0.36639887 -0.32593325 -2.1945455 -0.43632874
000230 9f 99 0d bf 11 87 07 be 6e 98 7f 3f 0c 58 5e 3e
       -0.5531253 -0.13235117 0.99841964 0.21713275
000240 dc 3e a5 3e e9 21 cd be 4c d9 fe be 09 cd 86 bc
       0.3227452 -0.40064934 -0.4977516 -0.01645519
000250 78 df 5e 3f c2 0d 0c 3f c3 7c 6c 3f 91 c6 e3 3e
       0.87059736 0.5470849 0.9237787 0.44487432
000260 87 44 dd bd e8 5a 8b be b2 b4 75 bf ff f8 1e bf
       -0.10804086 -0.27217793 -0.95978844 -0.6209869
000270 ca dc 24 3f 48 2e b0 be 80 29 83 bf b9 7c bf be
       0.643994 -0.3441031 -1.024704 -0.37399843
000280 a1 ff 19 3d c3 bf f8 3e 08 80 01 40 79 4a 05 3f
       0.037597302 0.48583803 2.0234394 0.5206676
000290 ce f4 f7 3e 2f b6 43 3f 17 da 9a 3f 0d df 24 3f
       0.4842896 0.76449865 1.2097806 0.6440285
0002a0 71 fa b7 3e 09 3f ad 3e 04 d1 02 bf 2d 7a 4e bd
       0.3593326 0.33837155 -0.5110018 -0.050409485
0002b0 62 04 5b be 58 c6 ba 3e 54 a9 e5 3e b1 94 fb 3e
       -0.2138839 0.3647945 0.4485575 0.4913688
0002c0 86 15 c7 3b 71 b0 8e bd de 62 c4 3e 47 18 f9 bb
       0.006075564 -0.06967247 0.3835668 -0.007601771
0002d0 77 09 47 be cd b3 47 3e bf 33 85 3f c8 3f e5 3e
       -0.19437204 0.19502182 1.0406417 0.44775224
0002e0 9b 40 8f 3e 18 ce c2 be 6c 00 62 bf c1 d0 d1 be
       0.27978978 -0.38047862 -0.88281894 -0.4097958
0002f0 ba 33 fd be 83 cd 8c be 48 b6 23 bf 8b 9b 2d be
       -0.49453527 -0.27500543 -0.63950014 -0.16953866
000300 e1 11 b9 be d5 b5 2f 3f 5d 7d 0e 40 5d e6 ac 3e
       -0.36146453 0.6863683 2.2264016 0.33769503
000310 07 67 87 bf 7d b0 53 bf a5 0f 05 bf a8 81 07 bf
       -1.0578316 -0.82691175 -0.51976997 -0.52932215
000320 60 8d 7a bf 2a dc ed be d8 a2 9d bf 90 9b 5e be
       -0.9787197 -0.46457034 -1.2315321 -0.2173903
000330 4c b9 54 3f 48 83 e3 3e ac 15 60 be 4e 3c a3 3e
       0.8309524 0.44436097 -0.21883267 0.31881946
000340 99 37 06 3f ea 9e cb 3e a5 d4 e3 3f 3e bd be 3e
       0.52428585 0.3976968 1.7799269 0.37253755
000350 41 c5 5f bf f4 21 14 bf d9 e6 f0 be 11 4b 9b be
       -0.8741036 -0.5786431 -0.47051123 -0.3033071
000360 ae f0 0e bd 5c 1e af be c9 95 b6 bf a1 d5 e7 be
       -0.0348975 -0.3420285 -1.4264461 -0.45280173
000370 7b 94 d2 be 2d c8 60 be 89 7d 8e be b4 a5 3e 3e
       -0.41128907 -0.21951361 -0.2783015 0.18617898
000380 9a d9 02 be 56 4d 0a bf 47 c8 00 c0 bc 27 1a bf
       -0.12778321 -0.54024255 -2.012224 -0.6021688
000390 36 3f 75 3e 57 d8 b3 be a3 35 42 be 65 23 82 be
       0.23949894 -0.35125992 -0.18965773 -0.2541763
0003a0 39 34 3f be 2a b0 d9 bd 16 7e c1 3d 9c d5 c6 be
       -0.18672265 -0.10629304 0.09447877 -0.38834846
0003b0 55 cc 33 bf 36 4e 59 3e f6 0c 05 40 5d c4 c8 3e
       -0.7023366 0.21221241 2.078916 0.39212313
0003c0 f7 63 ba be 38 92 b2 3e 06 71 90 3f 04 55 de 3e
       -0.36404392 0.3487718 1.1284492 0.43424237
0003d0 78 68 d3 bf f7 d2 9e bf 3b 05 0b c0 8a 9f 68 bf
       -1.6516256 -1.2408131 -2.1721942 -0.9086844
0003e0 1d f4 5d 3e 7e 8a db be d2 89 20 3f 32 68 2f bd
       0.21675153 -0.428791 0.627103 -0.042823978
0003f0 c5 a4 af 3e 4c 15 a5 be 25 e4 b8 bc 65 ed 71 be
       0.34305397 -0.3224281 -0.022569725 -0.23625715

nw.0.bias f4 [64]
000000 f9 08 09 3f 6c 4d 37 3f 21 13 53 3e 5e a4 df 3e
       0.53529316 0.7160251 0.20612766 0.4368009
000010 01 15 56 3f 74 df 55 3f c6 39 08 3f ff 80 29 bf
       0.836258 0.8354409 0.53213155 -0.6621246
000020 46 e1 3d 3f ad 02 36 3f 23 81 ba 3e 5d 79 02 3f
       0.74171865 0.7109783 0.36426648 0.50966436
000030 bd f4 1e bd 93 bd 5c 3f 6c cb 3f 3f c1 31 de be
       -0.03880762 0.8622677 0.7491977 -0.43397334
000040 9a 01 09 3f 7d 2b 49 3f 7e dd 39 3d be 26 c1 3e
       0.5351807 0.7858198 0.045377247 0.3772487
000050 33 ab a1 3e f0 b1 da 3e 2a 63 39 3f 38 b1 0e 3f
       0.31575927 0.4271388 0.7241694 0.55739164
000060 44 89 95 3e 7a 4a 8d 3f b2 d5 ee 3d 53 87 f0 3e
       0.29206288 1.1038353 0.11661853 0.46978244
000070 ea 0d f1 3e 64 16 d4 be ab f3 b0 3d 27 3d 9f 3e
       0.47080928 -0.41423333 0.08640226 0.31101343
000080 01 1b 8c 3e 86 ab 50 3f e6 fd c3 3d ec c9 2e 3f
       0.27364352 0.81511724 0.09569912 0.6827686
000090 0c fe 2e 3f c8 9e d6 bd 9d 44 da 3e 09 19 0e bf
       0.68356395 -0.10479504 0.42630473 -0.5550695
0000a0 c6 76 8e 3e 53 0d 63 bd 33 6e 32 be 58 02 61 3f
       0.27824992 -0.05543263 -0.1742485 0.878942
0000b0 f4 27 69 ba db 6a 4f 3f 1d 07 3c 3f d4 d0 30 3f
       -0.0008894198 0.81022424 0.73448354 0.69068646
0000c0 99 87 f5 3e 95 c9 0e 3d e0 d1 b6 3e 41 64 ee 3e
       0.47955015 0.034860212 0.35706997 0.46560863
0000d0 54 fb 8e 3e 59 36 2d 3f ab 15 01 3e a8 86 57 3f
       0.27926123 0.6766105 0.12605922 0.84189844
0000e0 bd fc ae 3e 6f 70 6e 3e 0b ac 35 3f 22 8b eb 3e
       0.341772 0.23285078 0.7096564 0.46004587
0000f0 2c 60 30 3f 9f 25 4c 3d 25 09 3a 3f 9a 9f 34 3f
       0.68896747 0.049840566 0.72670203 0.7055603

nw.2.weight f4 [64, 64]
000000 80 93 28 bf 10 78 cb 3e 29 10 16 be 74 fc 45 3e
       -0.6585007 0.39740038 -0.14654602 0.19334584
000010 bb bd 03 3f b2 ec 07 3f 01 26 43 3f 5b 33 77 bf
       0.5146138 0.53095543 0.76229864 -0.9656274
000020 a2 5f 85 3e 80 c4 e4 3e 88 4c cc 3e be 1f 14 3f
       0.26049525 0.44681168 0.3990214 0.57860935
000030 20 c0 4e 3f 60 7d f6 3e 9f 7f cb 3e d4 0e 1f bf
       0.8076191 0.4814253 0.39745805 -0.62132
000040 8a 3b 94 3e d0 b4 c6 3e b2 d4 d6 be c3 d5 2b bf
       0.28951675 0.38809824 -0.4195915 -0.6712305
000050 f1 5b 88 bf 7e a4 24 3e 68 80 76 3e 5b f4 b0 3e
       -1.0653058 0.16078374 0.2407242 0.34561428
000060 6f e9 9a 3e 25 6d 8f 3e e8 fe d5 be ef 42 70 3d
       0.3025622 0.28012958 -0.4179604 0.058657583
000070 62 bd c6 3e dc 15 8c b0 1d b2 02 3d 11 15 0d be
       0.38816363 -1.0192553e-09 0.031908143 -0.13777567
000080 48 c3 27 3e 1e 7a fb 3e c6 e6 03 bc 78 36 8b 3e
       0.16383088 0.49116606 -0.008050626 0.27189994
000090 d4 a9 ad 3e 76 d7 a6 be 7b f1 0b 3e 94 70 97 be
       0.3391863 -0.3258626 0.13666336 -0.29578078
0000a0 ca c9 91 be e8 af 06 3f 6d 46 48 be fb 03 a8 3e
       -0.28474265 0.5261216 -0.19558115 0.32815537
0000b0 81 99 66 bd 04 d8 b2 3e c5 f4 00 3f c3 72 ec 3e
       -0.056298736 0.34930432 0.5037349 0.46181306
0000c0 ac f6 24 3f fd 4e 23 bf b6 c4 8f 3e a2 01 98 3e
       0.6443889 -0.637924 0.28079766 0.29688746
0000d0 e6 01 6d bf 38 c2 a9 3e 40 94 22 be 54 28 e1 3e
       -0.9258102 0.3315599 -0.15876865 0.4397608
0000e0 93 b4 2c bf 1c 6d 6d 3f 72 38 12 3f e9 ca 9b be
       -0.67463034 0.9274461 0.5711738 -0.30428246
0000f0 c9 4d 8e 3e 73 95 40 3d 4e 3c d4 3e 87 4b 00 3f
       0.2779372 0.047017526 0.4145226 0.50115246
000100 6b 5e 30 bb 93 e6 ef ba 04 a7 67 bb ce 5f 7f bb
       -0.0026911746 -0.0018302969 -0.0035347352 -0.0038967016
000110 6a b9 f7 ba 81 1a fa ba 9a 58 5c ba 1f 89 03 02
       -0.0018899862 -0.0019081385 -0.00084055366 9.663712e-38
000120 f8 65 5c bb 23 75 9e bb bf 5b 1e bb 15 30 01 bb
       -0.0033630114 -0.004835741 -0.0024163572 -0.0019712497
000130 b1 0e 08 06 ed 50 5b bb 60 d6 55 bb b1 58 f5 01
       2.558955e-35 -0.0033464984 -0.0032628998 9.012605e-38
000140 a4 59 12 bb 4c b0 46 bb 66 0f cd b5 c9 0f 38 ba
       -0.0022331262 -0.0030317483 -1.5278172e-06 -0.0007021395
000150 16 da 4a bb 34 4c cc ba 32 6c 52 bb 2a 08 30 bb
       -0.0030952743 -0.0015586675 -0.0032107946 -0.0026860335
000160 da d5 48 bb 10 3d 1d bb 87 dd 2c bb f9 4d 77 bb
       -0.0030645044 -0.0023992695 -0.0026377158 -0.0037735684
000170 d2 64 6f bb ea bf 4e 82 b7 9a 8a b9 f5 e7 ea ba
       -0.00365286 -1.5189566e-37 -0.00026436683 -0.0017921912
000180 39 0e 40 bb b1 d0 e7 ba 36 4b 5d b8 df df 4f bb
       -0.0029305352 -0.0017686096 -5.276055e-05 -0.003171913
000190 e0 5c a1 bb 1d 16 1d bb 3a de e0 ba 9e 28 cc ba
       -0.0049244016 -0.002396948 -0.0017156072 -0.001557607
0001a0 51 24 00 bb 53 b2 0f bb 3f 42 c6 ba aa 72 31 bb
       -0.0019552896 -0.0021926358 -0.0015125944 -0.0027076402
0001b0 f6 bb 12 87 d1 b0 20 bb cf fe 58 bb da 15 48 bb
       -1.1039056e-34 -0.0024519453 -0.0033110862 -0.0030530603
0001c0 92 7f 1c ba 47 51 45 b8 b9 b0 0e bb 81 dd 83 bb
       -0.0005969937 -4.7044156e-05 -0.0021772815 -0.004024208
0001d0 15 c3 3d bb b4 0b 54 bb d9 23 03 b9 75 49 3d bb
       -0.002895539 -0.0032355608 -0.00012506488 -0.0028882895
0001e0 01 28 ec ba eb 5e e5 ba b8 cd e5 ba a8 f5 21 bb
       -0.0018017293 -0.0017499601 -0.0017532622 -0.0024713073
0001f0 02 b3 f5 ba 9b 19 01 b9 60 aa 3d bb eb 35 95 bb
       -0.0018745365 -0.00012311937 -0.0028940663 -0.0045535467
000200 12 7f 56 b7 51 b1 06 3e ef 08 67 3e 38 00 39 3e
       -1.278498e-05 0.13153578 0.22562002 0.1806649
000210 f7 bd fa 3d b0 64 24 be 36 ec 49 bf 2e 98 1a 01
       0.12243264 -0.16054034 -0.78876054 2.8394516e-38
000220 17 c8 eb bd 1a 2c 42 3e 35 c2 cd bc 28 51 0c bd
       -0.115127735 0.18962136 -0.02511702 -0.034257084
000230 98 59 a5 ba c0 15 4c 3e d4 98 01 bf 5a a7 6e 36
       -0.0012615202 0.19930172 -0.5062382 3.5562175e-06
000240 4b c9 46 3e f1 a0 54 bc 17 9e a4 3b 9e b4 de be
       0.19412725 -0.012977825 0.0050237286 -0.43497175
000250 85 8b 9b 3e f5 be b9 be 73 96 6d bd 2b 97 9b bd
       0.30379882 -0.362785 -0.058004808 -0.075971924
000260 92 53 22 be 56 c6 50 bf e4 b7 21 3e 9e c3 ed 3d
       -0.15852192 -0.81552637 0.15792805 0.11609577
000270 4f 5f 03 3e 76 ba 1d 31 e7 8e ea b8 fd fb c8 01
       0.12829326 2.2952498e-09 -0.00011184607 7.382998e-38
000280 ce 42 8f 3b 70 7e 55 be 8b 94 7b bd 6e 9a 8a bd
       0.0043719774 -0.20849013 -0.06142096 -0.067677364
000290 c4 fd df 3d 7a 8a a9 3e 14 a9 24 3e 0f 07 be 3e
       0.10937074 0.33113462 0.16080123 0.3711476
0002a0 3f 73 24 bf 97 e8 ae 3d 2c bc eb 3e 0e 7d 86 be
       -0.6423835 0.08540457 0.46042 -0.26267284
0002b0 41 9e 4f 3c 07 0d c4 be 43 41 30 3e 21 13 80 3e
       0.012672008 -0.3829119 0.17212395 0.25014594
0002c0 1d 58 4b bf 52 07 98 01 44 48 31 3c 87 67 89 3e
       -0.79431325 5.5846486e-38 0.010820452 0.26836798
0002d0 db be b0 be cf bd 11 bd a5 8d fa 3d b7 5b 6a bd
       -0.3452061 -0.035581406 0.12234048 -0.057216372
0002e0 aa 85 54 3e 6d ae c6 3d 1c 93 05 be fb ce f5 01
       0.20754114 0.09701238 -0.13044399 9.029579e-38
0002f0 14 fc 2b bf b8 85 f9 ba 31 09 82 be a1 3c 77 3d
       -0.67181516 -0.0019037044 -0.25397637 0.060360555
000300 2a b3 42 bf f3 6e be 3e e4 0b bd be f8 78 fa 3d
       -0.7605463 0.37194023 -0.36923134 0.12230104
000310 30 27 62 3e 40 46 87 3e 4a 40 05 3f 0d 48 9b bf
       0.22085261 0.26420784 0.5205122 -1.2131363
000320 d6 fd 48 3e b0 44 99 3e b2 ab 31 3e 73 a9 ee 3e
       0.1962808 0.29935217 0.17350653 0.46613654
000330 07 5c 17 3f bf ea a4 3e f3 dc a8 3e cb 8f 3e bf
       0.591248 0.32210347 0.3298107 -0.7443816
000340 b3 e2 83 3e 5b 05 5d 3e 36 cc 54 bf 4a cd 57 bf
       0.25758895 0.21584074 -0.831241 -0.8429762
000350 7e b5 8f bf c1 32 62 3e 65 c3 9d 3e 82 55 a9 3e
       -1.1227262 0.22089674 0.30813137 0.3307305
000360 ff 72 8e 3c c6 f5 07 3e 0c 2c 1b bf b9 92 f0 bc
       0.017388819 0.13277349 -0.60614085 -0.029366838
000370 b3 9e 5f 3e ec 2f a0 b9 ac 10 15 be 42 44 e4 bd
       0.21837883 -0.00030553283 -0.14557141 -0.11145832
000380 bf 02 fa 3d be 22 a4 3e 29 b2 90 be a2 98 44 3e
       0.12207555 0.32057756 -0.28260925 0.1919885
000390 19 74 73 3e 34 85 02 bf e7 47 ef bd f3 5e b2 be
       0.23774756 -0.509845 -0.11683636 -0.34838066
0003a0 ad 63 b0 be 2f 77 d2 3e d2 2a 1e bf 81 77 dd 3e
       -0.34451047 0.41106555 -0.6178409 0.43255237
0003b0 c6 1b 46 bd 99 52 dc 3e 8f 13 6d 3e f9 97 9e 3e
       -0.04836633 0.43031767 0.23151992 0.3097532
0003c0 60 71 0f 3f 5e 5b 8a bf 17 0c 43 3e 21 c8 6b 3e
       0.5603237 -1.0809133 0.1904758 0.23025562
0003d0 5c 83 96 bf 68 10 d1 3d 3b 93 1d bf f6 26 04 3e
       -1.1758838 0.10208207 -0.6155278 0.12905487
0003e0 1a 9d 84 bf 30 85 6d 3f cb 5c a3 3e 94 ac 96 be
       -1.0360444 0.92781353 0.31906733 -0.29428542
0003f0 3a 89 d6 3e 96 a6 c2 be 7e d1 9a 3e e4 84 ac 3e
       0.4190157 -0.3801772 0.30237955 0.33695138

nw.2.bias f4 [64]
000000 fe 5c ec 3e ae b1 43 bb 87 91 2a be fc b5 99 3e
       0.46164697 -0.0029860544 -0.16657077 0.30021656
000010 0a 1e 0b a4 9c d3 ab 3e f2 24 58 bd 2d 27 fb 3e
       -3.0166264e-17 0.33559883 -0.05276961 0.49053326
000020 9c 93 97 3d dd 0a cb 3d 7b 64 69 3e ee 33 84 3e
       0.07401201 0.099141814 0.22792237 0.2582087
000030 b3 be 63 02 26 58 17 ac 82 59 8e 3e 3d 7c 7d 8f
       1.6732054e-37 -2.1507323e-12 0.27802664 -1.24977905e-29
000040 b0 5a 89 bc 54 eb af 3e 84 4c 80 01 6f a3 3e 82
       -0.016766876 0.3435923 4.712957e-38 -1.4005899e-37
000050 38 4c e4 bb c2 b4 b0 3e 14 c7 9c 3e b5 72 9e bc
       -0.006967094 0.34512907 0.30620635 -0.019341806
000060 eb 01 8f 3e 81 b0 c8 3e 77 04 5e 81 6f 3e 7c b8
       0.2793115 0.39197162 -4.0778164e-38 -6.0139628e-05
000070 66 4c 5b bd 1e d1 68 3e e9 1b 95 3e 85 7e e3 3e
       -0.053539656 0.22736022 0.29122856 0.44432464
000080 3d 46 ab 3e cd 46 8c 3e 8f a3 2c 3e 9a f0 25 3e
       0.33452025 0.27397767 0.16859268 0.16205063
000090 5c 30 02 3d 86 b3 eb ba a7 7f be 3e 6d f5 3c b6
       0.0317844 -0.0017982579 0.37206766 -2.815704e-06
0000a0 e7 84 bf 9a 68 0b f3 3e e1 d1 08 3e 59 8c 99 3e
       -7.9210464e-23 0.4746964 0.13361312 0.2998989
0000b0 e1 e5 4b 3e 8e ed 45 3e 1a 05 59 3e 43 64 ce 3e
       0.1991191 0.19328901 0.21193352 0.4031087
0000c0 61 0c 1c 3d 0f d5 a1 3e 6a b9 08 3d 8c 68 26 3e
       0.038097743 0.31607863 0.03337995 0.16250819
0000d0 12 0e b3 3d 07 ab 21 3e 69 7d 22 bc 06 58 c6 3e
       0.08742918 0.15787898 -0.009917595 0.38739032
0000e0 70 2f a8 2a 3e 3a 41 3e d2 e5 64 3e df 72 ab b8
       2.987571e-13 0.18869874 0.22353294 -8.175312e-05
0000f0 d9 ca 5d 3e b0 b0 01 3e ae 48 a7 3e 07 83 49 3d
       0.21659411 0.12665057 0.32672638 0.049197223

nw.4.weight f4 [2, 64]
000000 8c 03 27 3f c3 e2 16 3b 44 6b 6f bf d2 e0 7b 3f
       0.6523979 0.0023023344 -0.9352305 0.98389924
000010 2e 6a d9 37 3c 9b 58 3f 04 a5 31 bf 56 2c 23 3f
       2.591786e-05 0.8461187 -0.6939242 0.63739526
000020 db 28 7d bf d4 b4 4a bf 7d 72 82 3f b4 68 b6 3f
       -0.98890465 -0.7918217 1.0191189 1.4250703
000030 92 06 9d b5 4a e9 c5 3a c2 a3 46 3f 1e 19 01 b9
       -1.1699324e-06 0.0015099433 0.77593625 -0.00012311756
000040 09 05 65 3f 3d 85 1f 3f d7 23 0b 02 68 03 99 02
       0.8946081 0.6231268 1.0222393e-37 2.2483285e-37
000050 c4 71 4c 3a 54 1d 2d 3f ec 97 e0 3f 2f d2 ad bd
       0.0007798935 0.67622876 1.7546363 -0.08487355
000060 70 d9 61 3f d0 dc 25 3f 0f 53 23 82 6d 95 ac a5
       0.8822241 0.6479006 -1.1999185e-37 -2.9938499e-16
000070 41 ae c3 be bd 1e 08 40 ae ff 8c 3f 24 75 31 3f
       -0.38218883 2.126876 1.1015527 0.6931937
000080 4b c3 fb bd de 84 ad 3f 3f b4 af 3f 23 17 d4 3f
       -0.122931086 1.3556173 1.3726882 1.6569561
000090 3e c8 b6 3f 98 6b c7 3a f4 d5 42 3f f8 99 aa 39
       1.4279859 0.001521456 0.76107717 0.00032539642
0000a0 01 a4 95 31 f2 21 06 3f 66 7f 62 3f 38 5d 76 3f
       4.355116e-09 0.52395546 0.88475645 0.9623599
0000b0 13 bd ad 3f 58 7f 52 3f 43 44 72 bc 10 b7 1f 3f
       1.3573326 0.8222556 -0.014786783 0.62388706
0000c0 3e 16 7e be 36 4a a6 3f ef f5 87 3d 07 2b 9f 3e
       -0.24813172 1.2991397 0.06638705 0.31087515
0000d0 9c 7f d9 3f 00 58 78 3f 1a ce 9b 3f 63 86 e8 be
       1.6992068 0.9700928 1.2172272 -0.4541503
0000e0 21 11 30 b6 c8 dc b4 3e cf a0 8c 3f 86 0c d3 3a
       -2.6236014e-06 0.35324693 1.0986575 0.0016101755
0000f0 78 2f 91 3f 97 50 9c be d0 41 81 be db f0 0b c0
       1.1342611 -0.30530235 -0.25245523 -2.1865757
000100 f5 c4 2e 3f 3f 4f a4 bb 5d 79 57 bf b1 7f 5d 3f
       0.6826928 -0.0050143297 -0.8416956 0.86522967
000110 b1 b7 5d ba 03 21 15 3f ac f9 47 3e 66 8c 25 3f
       -0.0008457853 0.58253497 0.19528836 0.64667356
000120 02 bf 2c 3d 9b 87 5c 3d 3e cc 1f 3f dc 34 91 3f
       0.042174347 0.05384026 0.62421024 1.1344256
000130 d0 12 dd 34 24 46 ae 3a ba b4 09 3f 70 c7 43 3a
       4.1178146e-07 0.001329605 0.5379139 0.0007468378
000140 17 c9 aa 3e ce 6f 39 3f 0a e1 f1 01 6b 51 bb 01
       0.33356544 0.72436225 8.8852334e-38 6.880978e-38
000150 87 4d cc 3a cf 4f 41 3f ae d8 b5 3f 6a 11 41 21
       0.001558707 0.75512403 1.420675 6.541399e-19
000160 a8 af 70 3f 70 88 36 3f 84 f8 8a 82 52 9b 9f ab
       0.9401803 0.7130194 -2.0419919e-37 -1.134074e-12
000170 f3 9c 59 bf d1 d3 11 40 e3 72 a1 3f 54 cb 1e 3f
       -0.8500511 2.2785532 1.2613186 0.62029004
000180 40 b6 88 3f 62 be 82 3f ed f7 89 3f ac 23 cf 3f
       1.0680618 1.021435 1.0778786 1.6182761
000190 46 c4 86 3f fd eb d7 ba 27 80 3f 3f 97 a6 f3 3a
       1.0528648 -0.0016473528 0.7480492 0.0018589076
0001a0 b4 72 01 3a c2 36 20 3f 94 f1 8a 3f bb b9 58 3f
       0.00049380516 0.62583554 1.0854974 0.846584
0001b0 c4 a2 87 3f 65 f8 9e 3f b3 04 89 bf 1e 8f 2e 3f
       1.0596547 1.2419554 -1.0704559 0.6818713
0001c0 b8 53 95 bf 57 da d3 3f 75 8c aa bf 24 9b 39 bf
       -1.1666174 1.6551007 -1.3324114 -0.7250235
0001d0 57 98 9b 3f e1 56 82 3f ea a8 c0 be 30 e1 81 bf
       1.2155865 1.0182763 -0.3762887 -1.0146847
0001e0 30 e4 cc b6 16 81 3d bf 66 0d 39 3f a6 60 bb 39
       -6.1062383e-06 -0.74025095 0.7228607 0.00035739428
0001f0 89 ef ef 3f f5 dd 35 bf e9 3b 41 3f 0c dd 25 bf
       1.8744975 -0.71041805 0.7548204 -0.64790416

nw.4.bias f4 [2]
000000 ed 18 92 3e b9 89 a0 3e
       0.28534642 0.31355074
