实验报告/hw10/hw10_21307303_liuzhuoyi_origin.pth (torch, 20919 bytes, 6 tensors)

nw.0.weight f4 [64, 4]
-0.35156348 0.032212533 1.6413385 0.8708453 -0.043942176 0.09210758 -0.365111 -0.35333318
0.7421783 -0.0166045 -1.166509 -0.40641096 0.80400693 0.04155067 0.18332334 0.090922855
-0.06639477 0.4590712 0.24039933 -0.057138655 -0.35760748 0.18596023 -0.119450174 -0.16059342
-0.22380511 0.27701005 1.4824034 -0.027809594 -0.8933953 0.19314992 1.2813212 0.6613375
-0.21477154 -0.035429023 0.6482155 0.2540515 0.58989894 -0.4823328 -0.60509956 -0.38217252
-0.29332647 -0.60828525 -0.15099029 -0.48095754 0.15349552 0.4498448 -0.07552985 -0.010414236
1.218641e-11 -1.4135734e-23 2.9415487e-24 1.8027897e-23 -0.39026836 -0.12929626 -0.73086154 -0.13628866
0.415122 0.44700524 0.7052031 0.28556344 -0.0151730515 0.43251976 1.1296833 0.43707538
0.19966105 -0.24799351 -0.38241982 -0.11793589 0.32813558 -0.02729947 -0.08620489 -0.023775626
-0.68976885 -0.36329073 -1.448549 -0.27884325 0.20317769 0.71065235 1.1609423 0.5193062
0.4948947 0.5049789 1.3026093 0.3891074 -0.029626412 0.05774311 0.10491466 0.48733458
0.27795586 -0.05035981 -0.26128227 0.29899648 -0.35415596 0.26715055 0.39032248 0.36832452
0.4098278 0.4732009 0.5764401 0.29474223 -0.3096701 -0.06423811 1.8852257 0.47419477
1.3230518 0.4259781 0.89870614 0.31510603 0.0034735955 -8.682949e-14 6.185675e-38 -1.5576658e-20
0.6910353 0.09304427 -0.0026055397 -0.02728636 -0.27762067 -0.7696461 -1.4859282 -0.64569455
-0.18491292 -0.60302323 -0.47500718 -0.022357069 -0.02841854 -0.41154796 -1.5693144 -0.5406401
0.72289276 0.30247998 -0.23697412 0.23180197 -0.11737599 0.45141238 0.83940524 0.031736225
-1.1973234 -0.15175575 -0.5326146 -0.091377385 -0.34646654 -0.30013195 0.8593602 0.4899056
0.47447982 -0.36943063 -0.5024575 0.004474101 1.1793384e-27 -7.339704e-38 6.1390684e-38 2.0318431e-38
-0.31042138 -0.13832784 0.009826309 -0.26308185 -0.17302333 -0.16534518 -1.0034655 -0.73252124
-0.3532847 0.37553018 1.8802515 0.6138404 0.48775443 0.8257473 1.5024954 0.5882936
-1.0113246e-37 -1.7638517e-16 1.0040815e-37 1.7076655e-14 -0.015330931 0.38979524 0.04116158 0.46144468
-0.91340107 -0.42878583 -0.08875202 -0.1691773 0.038407687 0.20317355 0.61957085 0.4352801
0.40458432 -0.36479804 -0.6727039 -0.33768624 -0.3185475 -0.16788074 -0.48595834 -0.183369
-0.26098305 0.41967508 1.2498913 -0.056380372 -0.8619383 -0.28882328 0.9199531 0.017339025
-0.33363384 -0.15085156 -0.67169434 -0.18479675 0.69238275 0.3006431 -0.36365095 0.24138986
1.0257151 0.26232672 1.1249855 0.19568834 -0.40441602 -0.41191095 -0.28693554 -0.24428484
0.3834383 -0.48637858 -0.5138263 -0.20437971 -0.35207593 -0.19296622 -0.37151837 0.19657443
-0.17458303 -0.6851866 -1.5498426 -0.5556668 0.5002451 -0.31563103 -0.24040218 -0.13901593
-0.16258277 -0.101685666 0.08481154 -0.2852455 -0.07734039 0.36223555 1.5851539 0.52963436
-0.2628245 0.3290897 0.6949533 0.47715074 -1.6912001 -0.53504574 -0.5906996 -0.3340008
0.4505116 -0.35434076 0.36507085 -0.04042003 0.48093092 -0.3144151 -0.050252937 -0.15220428
00000000: 2100 b4be 4af1 033d 6117 d23f b8ef 5e3f
00000010: b6fc 33bd e6a2 bc3d d4ef babe 16e8 b4be
00000020: 66ff 3d3f 2906 88bc 2b50 95bf 1915 d0be
00000030: 66d3 4d3f 0931 2a3d 1db9 3b3e c335 ba3d
00000040: fbf9 87bd 610b eb3e 3e2b 763e 390a 6abd
00000050: 5418 b7be 5c6c 3e3e 4ba2 f4bd 9a72 24be
00000060: 2b2d 65be 43d4 8d3e 65bf bd3f f2d0 e3bc
00000070: 8eb5 64bf 18c9 453e 5502 a43f 6a4d 293f
00000080: 12ed 5bbe 061e 11bd 73f1 253f 0a13 823e
00000090: 9e03 173f 53f4 f6be cee7 1abf 1eac c3be
000000a0: e32e 96be 95b8 1bbf 339d 1abe 1140 f6be
000000b0: ee2d 1d3e 0f52 e63e 65af 9abd 79a0 2abc
000000c0: b662 562d 62b6 8899 6097 6318 e95a ae19
000000d0: 41d1 c7be 3d66 04be be19 3bbf 418f 0bbe
000000e0: df8a d43e dfdd e43e 3188 343f 5f35 923e
000000f0: 6498 78bc 3b73 dd3e 7699 903f 58c8 df3e
00000100: f273 4c3e 03f2 7dbe 88cc c3be 5f88 f1bd
00000110: 6301 a83e 23a3 dfbc 308c b0bd 1ac5 c2bc
00000120: b194 30bf 3e01 babe 0e6a b9bf 8bc4 8ebe
00000130: d00d 503e 50ed 353f c299 943f 40f1 043f
00000140: d762 fd3e 4c46 013f e7bb a63f 1639 c73e
00000150: 17b3 f2bc 0a84 6c3d 7fdd d63d eb83 f93e
00000160: 3b50 8e3e 1746 4ebd cac6 85be 1116 993e
00000170: ee53 b5be f5c7 883e 59d8 c73e 0895 bc3e
00000180: f3d4 d13e 6347 f23e 9491 133f 74e8 963e
00000190: 148d 9ebe 458f 83bd 134f f13f a8c9 f23e
000001a0: c359 a93f cd19 da3e 9b11 663f 9455 a13e
000001b0: 43a5 633b cb85 c3a9 dd63 a801 0c1e 939e
000001c0: b0e7 303f ff8d be3d b4c1 2abb a587 dfbc
000001d0: 4c24 8ebe 8707 45bf e532 bebf 3d4c 25bf
000001e0: d059 3dbe bb5f 1abf 2434 f3be 2c26 b7bc
000001f0: ffcd e8bc 6ab6 d2be 4bdf c8bf 6467 0abf
00000200: 800f 393f a8de 9a3e 58a9 72be 7f5d 6d3e
00000210: d362 f0bd 861f e73e 43e3 563f d8fd 013d
00000220: e541 99bf dc65 1bbe 6e59 08bf 1124 bbbd
00000230: 1064 b1be e5aa 99be 08ff 5b3f e8d4 fa3e
00000240: 05ef f23e 0326 bdbe 0ea1 00bf 7b9b 923b
00000250: a6df ba12 45ce c781 101f a701 853f dd00
00000260: 8def 9ebe d0a5 0dbe 87fe 203c aab2 86be
00000270: 072d 31be 3f50 29be 8f71 80bf 8386 3bbf
00000280: bbe1 b4be 7e45 c03e 15ac f03f a524 1d3f
00000290: f3ba f93e 2d64 533f c551 c03f 699a 163f
000002a0: 85a7 0982 b75b 4ba5 22ab 0802 16d0 9928
000002b0: 962e 7bbc 3e93 c73e 0b99 283d 7a42 ec3e
000002c0: a7d4 69bf d189 dbbe 9ec3 b5bd d03c 2dbe
000002d0: 6151 1d3d ba0c 503e 329c 1e3f 09dd de3e
000002e0: ad25 cf3e cfc6 babe 5336 2cbf 36e5 acbe
000002f0: a818 a3be eee8 2bbe 88cf f8be 15c5 3bbe
00000300: 929f 85be a7df d63e 70fc 9f3f 1bef 66bd
00000310: fda7 5cbf a5e0 93be 0c82 6b3f 920a 8e3c
00000320: 0ed2 aabe d578 1abe 29f4 2bbf 5c3b 3dbe
00000330: ff3f 313f e4ed 993e 7530 babe e72e 773e
00000340: a24a 833f b04f 863e 86ff 8f3f 8662 483e
00000350: 9e0f cfbe fee5 d2be 37e9 92be ce25 7abe
00000360: 0652 c43e 9d06 f9be 1f8a 03bf ea48 51be
00000370: 4c43 b4be f098 45be a837 bebe cf4a 493e
00000380: e5c5 32be 6468 2fbf 3e61 c6bf 2e40 0ebf
00000390: 1010 003f 649a a1be fd2b 76be 315a 0ebe
000003a0: 197c 26be 9340 d0bd acb1 ad3d b30b 92be
000003b0: a364 9ebd f076 b93e 53e6 ca3f 1e96 073f
000003c0: ef90 86be 727e a83e 76e8 313f 1a4d f43e
000003d0: 3f79 d8bf c2f8 08bf 1738 17bf 2702 abbe
000003e0: 75a9 e63e 276c b5be 91ea ba3e 798f 25bd
000003f0: 943c f63e 04fb a0be 06d6 4dbd 70db 1bbe

nw.0.bias f4 [64]
-0.47174528 0.6452175 0.45953432 0.501035 0.8268055 0.80144227 0.5579511 -0.5902839
0.88493556 0.65531886 0.47977915 0.43062848 -2.6940603e-12 0.85498816 0.71025014 -0.12607415
0.50272065 0.7624822 0.12617803 0.17338605 0.111554034 0.3797757 0.7191062 0.55799186
0.3864864 1.0449421 0.22443394 -0.0011949149 0.43633732 -0.2535556 0.15273724 -0.5164935
0.22185378 0.81975716 -0.0070065944 0.59633934 0.6648674 -2.912245e-28 0.31215665 -0.51487523
-0.20420548 -0.027311215 -6.5664295e-07 0.8895268 -0.16961658 0.8182327 0.68259454 0.6766869
0.51442486 -0.3397576 0.5130025 0.4820316 0.105775595 0.7430566 -0.28658265 0.8120939
0.10243805 0.21687204 0.6686953 -0.24830592 0.6639147 0.1421776 0.7320793 0.67431194
00000000: 9988 f1be f92c 253f 1548 eb3e d443 003f
00000010: 86a9 533f 522b 4d3f e2d5 0e3f d81c 17bf
00000020: 238b 623f fac2 273f 9da5 f53e 567b dc3e
00000030: e093 3dac 81e0 5a3f f4d2 353f 9519 01be
00000040: 4db2 003f 0932 433f d034 013e 1d8c 313e
00000050: 7176 e43d f671 c23e 5817 383f 8ed8 0e3f
00000060: 8ce1 c53e aac0 853f 03d2 653e b19e 9cba
00000070: 9b67 df3e 0ad2 81be 2767 1c3e eb38 04bf
00000080: a32d 633e 9bdb 513f 9397 e5bb b2a9 183f
00000090: c034 2a3f e095 b891 ffd2 9f3e ddce 03bf
000000a0: 3e1b 51be c5bb dfbc 2944 30b5 07b8 633f
000000b0: f8af 2dbe b377 513f 84be 2e3f 5a3b 2d3f
000000c0: 59b1 033f b5f4 adbe 2254 033f d9cc f63e
000000d0: e0a0 d83d f538 3e3f f6ba 92be 63e5 4f3f
000000e0: 0acb d13d b413 5e3e 9d2f 2b3f e843 7ebe
000000f0: 50f6 293f 0197 113e 8d69 3b3f b59f 2c3f

nw.2.weight f4 [64, 64]
-0.30717933 0.38672408 0.036702972 0.31392354 0.5449452 0.5355118 0.5720263 -0.58348113
0.25341365 0.35719892 0.32929775 0.4739839 7.954593e-24 0.49500299 0.25088528 -0.40386516
0.2680841 0.36998835 -0.19773057 -0.41296053 -0.73559374 0.21413991 0.25665608 0.37689966
0.39004084 0.26288098 -0.36454043 7.1963503e-38 0.41057375 -0.99185675 0.12281653 -0.46528086
0.31024593 0.5233555 -0.32579502 0.2884482 0.30819145 7.5893635e-38 0.120371446 -0.5541085
-0.2614057 -0.29441756 7.846021e-38 0.37938404 -0.22126344 0.369814 0.44706804 0.47261497
0.42500234 -0.24885795 0.31173024 0.41139346 -0.56548166 0.3480098 0.05170131 0.44893137
-0.4825017 0.5877845 0.54257756 -0.42265034 0.3191833 0.21689965 0.36769587 0.4421185
9.5588304e-30 1.3248681e-29 8.295652e-31 -1.7920756e-29 -1.4471444e-29 3.8814432e-30 -1.644556e-29 1.0586279e-37
2.920517e-25 1.3856788e-29 3.625463e-30 -2.3415042e-30 -1.0078457e-37 -1.47262285e-27 -6.93653e-30 6.4326146e-38
2.2477843e-29 1.663144e-29 -1.0444103e-29 2.4993538e-30 2.9061923e-31 -3.1170415e-29 -1.4316074e-29 3.9651113e-30
-4.237289e-30 -1.7890833e-17 -1.1709857e-30 8.6385404e-38 9.460977e-30 -1.6515745e-37 2.3251048e-29 1.2713367e-37
2.4002007e-30 -1.7916973e-29 -1.6973896e-30 -3.0028868e-23 5.2332446e-29 -5.753782e-38 3.241262e-30 4.813689e-38
-3.1472498e-30 1.6100452e-37 4.4072445e-38 8.073762e-28 -2.755829e-30 -2.863843e-27 -2.5779936e-29 4.187988e-29
-1.01679855e-29 -6.8549564e-31 -3.8670796e-30 -7.4738345e-30 -1.5626053e-31 5.0072137e-27 1.5674703e-38 -5.6910792e-24
-6.857021e-30 9.2415425e-30 8.0654696e-30 7.9788023e-38 -3.9075996e-29 1.5300078e-29 6.93471e-29 3.5485386e-29
-0.98503196 0.19461551 -0.07610254 0.12920365 0.10939552 -0.058146346 -0.17046712 -0.6693802
-0.16430847 0.24618213 0.16855411 0.15629683 -2.0061285e-24 -0.04079788 -0.061772764 -0.031883053
0.33489546 0.08056894 0.30317363 -0.18008408 0.35694912 0.03170664 0.15450056 -0.1559945
-0.09085428 -0.23709036 0.4546204 -6.7660104e-38 0.16807887 0.96176636 0.20085414 0.44247884
0.102240875 -0.12680921 -0.39332262 -0.059807032 0.2811549 -7.069961e-38 0.052938707 0.4494843
-0.43580467 -0.4622844 -6.130589e-38 -0.10069232 -0.31983986 -0.01043683 0.1972024 0.15737313
-0.08879364 -0.6038287 0.2587807 0.14078914 -0.0077457493 0.14916128 0.18593958 0.006579706
0.57941353 0.47131082 0.035974488 -0.018796913 -0.29737374 -0.3258913 0.08757678 0.20264684
-0.21261972 0.4965197 -0.04437664 0.3437035 0.3195573 0.41542363 0.47182468 -0.53958565
0.21419874 0.2845287 0.26799902 0.4695858 -8.444764e-24 0.46938583 0.2707275 -0.456573
0.31091854 0.22862278 -0.33652863 -0.54890466 -0.66637594 0.35470638 0.3251429 0.43281862
0.24636732 0.15274632 -0.42612216 6.5793637e-38 0.3232982 -1.0226822 0.16015065 -0.5607717
0.39762387 0.3970156 -0.22642367 0.2618171 0.2217482 8.224115e-38 0.076431416 -0.43406484
-0.28323096 -0.14253928 8.2901456e-38 0.4824144 -0.28143406 0.45314538 0.26682723 0.46690696
0.49294785 -0.35295162 0.37573078 0.45449796 -0.7262874 0.25276768 0.012640106 0.23617025
-0.55191886 0.63633156 0.4364584 -0.43348274 0.5039732 0.04104599 0.26392925 0.3139772
00000000: 9c46 9dbe b300 c63e db55 163d 96ba a03e
00000010: 8781 0b3f 4d17 093f 5170 123f 055f 15bf
00000020: 6fbf 813e c7e2 b63e b799 a83e 05ae f23e
00000030: 3ddd 1919 0871 fd3e 0974 803e 6ac7 cebe
00000040: 5242 893e 1d6f bd3e e279 4abe 906f d3be
00000050: df4f 3cbf 7e47 5b3e 6d68 833e fef8 c03e
00000060: 6fb3 c73e 5698 863e 0ba5 babe 3ee7 c301
00000070: b936 d23e 53ea 7dbf 3c87 fb3d 4b39 eebe
00000080: 8ed8 9e3e a0fa 053f 9bce a6be 7caf 933e
00000090: 45cb 9d3e 259a ce01 4e85 f63d 0eda 0dbf
000000a0: f8d6 85be e6bd 96be c996 d501 a03e c23e
000000b0: e292 62be 4358 bd3e 1ae6 e43e 97fa f13e
000000c0: e899 d93e 9ed4 7ebe 1b9b 9f3e 2aa2 d23e
000000d0: 68c3 10bf 572e b23e c1c4 533d 55da e53e
000000e0: 760a f7be 0c79 163f 5de6 0a3f a065 d8be
000000f0: fe6b a33e f11a 5e3e a242 bc3e 5b5d e23e
00000100: 49e0 410f 8b5b 860f ca9a 860d f1bc b58f
00000110: 04c2 928f 3673 9d0e 1dc7 a68f cc17 1002
00000120: 70c5 b416 4786 8c0f f610 930e 24f7 3d8e
00000130: 4c2e 0982 ae58 e992 86b0 0c8f c81c af01
00000140: d1f3 e30f b0a9 a80f e2d4 538f 8cc5 4a0e
00000150: 679f bc0c 830d 1e90 a72e 918f 12d8 a00e
00000160: 86e2 ab8e 8903 a5a3 d800 be8d d729 eb01
00000170: 33e4 3f0f f9cc 6082 2ccb eb0f 9e0b 2d02
00000180: 38ba 420e 1fb3 b58f 67b5 098e f035 119a
00000190: b3ad 8410 02a2 9c81 307b 830e 840a 8301
000001a0: d255 7f8e e325 5b02 06f4 6f01 24de 7f12
000001b0: 5494 5f8e a3e5 6293 45b8 0290 315b 5410
000001c0: 333b 4e8f c074 5e8d 0dde 9c8e 5e96 178f
000001d0: 78d6 4a8c 2e5b c613 b2ae aa00 b829 dc98
000001e0: b013 0b8f d570 3b0f 5096 230f 2334 d901
000001f0: 8b23 4690 4629 9b0f d7d0 af10 aaee 3310
00000200: 0e2b 7cbf 4a49 473e a6db 9bbd f64d 043e
00000210: c20a e03d dd2a 6ebd ef8e 2ebe 805c 2bbf
00000220: 7b40 28be 2b17 7c3e 7399 2c3e 470c 203e
00000230: 7837 1b98 ae1b 27bd 7005 7dbd ce97 02bd
00000240: 6b77 ab3e 5401 a53d 9339 9b3e f667 38be
00000250: 09c2 b63e d2de 013d 6535 1e3e 06bd 1fbe
00000260: cf11 babd d1c7 72be 01c4 e83e 3630 b881
00000270: de1c 2c3e 5236 763f b5ac 4d3e 968c e23e
00000280: aa63 d13d 46da 01be 9561 c9be 38f8 74bd
00000290: 89f3 8f3e 7076 c081 42d6 583d ce22 e63e
000002a0: ca21 dfbe 8ab0 ecbe f8e3 a681 c637 cebd
000002b0: 0dc2 a3be 3dff 2abc 6def 493e 6c26 213e
000002c0: 71d9 b5bd 8594 1abf e77e 843e 072b 103e
000002d0: 0ed0 fdbb bcbd 183e f266 3e3e 939a d73b
000002e0: 7254 143f a74f f13e fc59 133d fcfb 99bc
000002f0: 5f41 98be 39db a6be 745b b33d a782 4f3e
00000300: fcb8 59be d537 fe3e 48c4 35bd e8f9 af3e
00000310: 049d a33e 68b2 d43e 0193 f13e 4922 0abf
00000320: ea56 5b3e bfad 913e 2b37 893e 8d6d f03e
00000330: 7258 2399 5753 f03e cb9c 8a3e f0c3 e9be
00000340: b730 9f3e 171c 6a3e 7b4d acbe 0485 0cbf
00000350: 9d97 2abf 139c b53e 2179 a63e 679a dd3e
00000360: b747 7c3e 8869 1c3e af2c dabe 791b b301
00000370: 5787 a53e 40e7 82bf 88fe 233e bc8e 0fbf
00000380: 5b95 cb3e a145 cb3e 9bdb 67be e40c 863e
00000390: f611 633e b7e1 df01 1388 9c3d bf3d debe
000003a0: a603 91be d1f5 11be e2ad e101 05ff f63e
000003b0: 2018 90be ac02 e83e 949d 883e 6e0e ef3e
000003c0: a963 fc3e 13b6 b4be c95f c03e f5b3 e83e
000003d0: f9ed 39bf c46a 813e 7218 4f3c 9dd6 713e
000003e0: 8e4a 0dbf a0e6 223f 7a77 df3e 73f1 ddbe
000003f0: 6304 013f d71f 283d bc21 873e 9fc1 a03e

nw.2.bias f4 [64]
0.45060456 1.25995554e-26 -0.074917845 0.36814246 -0.08428067 0.3305813 0.09233079 0.48025152
-0.074383564 0.0019683875 0.24351117 0.1139437 0.032217946 0.055432804 0.27297163 -9.085398e-12
0.062997095 0.3299173 4.712957e-38 -1.891667e-37 0.10888417 0.33201325 0.18006866 -0.012855698
0.33320215 0.37948424 0.112699874 0.13538815 0.049317192 0.27596372 0.36260968 0.4359558
0.2409561 0.33855304 0.086942375 0.14192158 0.09516352 0.015330264 0.36120307 -1.7975748e-16
-0.1076951 0.46184957 0.1845501 0.33140638 0.27829278 0.25634515 0.10662094 0.39110795
0.037755243 0.33740175 0.045312032 0.15818074 -0.032289144 0.15174443 0.12694114 -0.0023785431
0.16512226 0.16665787 0.13612396 -0.014242998 0.105133496 0.07242216 0.1915447 -0.036015555
00000000: a4b5 e63e 568f 7914 876e 99bd 2b7d bc3e
00000010: 589b acbd f441 a93e ed17 bd3d 87e3 f53e
00000020: 6956 98bd 1000 013b fe5a 793e 515b e93d
00000030: f7f6 033d 820d 633d f0c2 8b3e ffd4 1fad
00000040: 9f04 813d ecea a83e 844c 8001 7dbd 8082
00000050: aafe de3d a4fd a93e eb63 383e b5a0 52bc
00000060: 7999 aa3e c24b c23e 31cf e63d 31a3 0a3e
00000070: d300 4a3d 1e4b 8d3e faa7 b93e 9935 df3e
00000080: 32bd 763e d356 ad3e d80e b23d e453 113e
00000090: 17e5 c23d ca2b 7b3c 9cef b83e 0b3f 4fa5
000000a0: 408f dcbd 8c77 ec3e b4fa 3c3e 19ae a93e
000000b0: 647c 8e3e ac3f 833e 145c da3d 4d3f c83e
000000c0: 3ea5 1a3d ecbf ac3e 1c99 393d 22fa 213e
000000d0: 9f41 04bd e462 1b3e dcfc 013e 55e1 1bbb
000000e0: cf15 293e 5ca8 2a3e 1464 0b3e 775b 69bc
000000f0: 3b50 d73d 1252 943d 4b24 443e 0c85 13bd

nw.4.weight f4 [2, 64]
0.5352702 0.00011427494 -0.44103196 0.6269505 -1.2300237 0.7024089 -0.74093544 0.5153126
-0.49696144 0.00038808328 0.7334341 0.65793353 0.5607146 -1.0652089 0.6326691 -3.42473e-12
-0.9076899 0.50643253 1.0222393e-37 7.2806126e-38 1.8286052 0.55874544 0.7632184 -1.0930382
0.50239563 0.5271749 -0.8394775 -0.063042924 -0.1246542 0.8361363 0.65881294 0.5723621
-0.050214015 0.581616 0.59982294 0.8010503 0.8067475 -1.0160719 0.63204473 2.1295392e-20
-0.7873003 0.41454393 0.47624284 0.52892214 0.71203595 0.5030629 0.04890277 0.5032803
-0.9436205 0.75070155 0.26602605 0.24071048 0.656413 0.54144895 0.7066134 -7.713281e-05
0.72128004 0.26206675 0.45093387 0.2677078 0.5471394 -0.04579412 -0.5050008 -1.300162
0.57486665 -0.0012737376 -0.4531607 0.63665473 -1.0493528 0.48189953 -1.3099086 0.5557483
-0.586846 1.02041865e-11 0.3569348 0.67545444 -0.14070253 -0.62087846 0.43043768 -5.635326e-08
-1.1844593 0.62547714 8.8852334e-38 7.483516e-38 0.30986238 0.6451137 0.70999074 -0.08800705
0.5436751 0.6068846 0.49368775 0.7067024 -0.4167562 0.58533597 0.6480681 0.50989306
0.77927816 0.5830724 0.7905211 0.7843379 0.44388726 -1.3388027 0.62331975 -7.5963207e-38
-1.3422447 0.55252606 0.6220236 0.47722095 0.5221342 0.6624429 -0.69033074 0.5826027
-0.84170336 1.3673546 -0.9318319 -0.62850606 0.6217806 0.59256965 0.6232331 -2.8466295e-11
0.47026855 -0.63020784 -0.16634724 -0.5695348 0.7816017 -0.54631954 0.41967598 -0.20902507
00000000: 7807 093f e4a6 ef38 f1ce e1be d47f 203f
00000010: 6b71 9dbf 12d1 333f f2ad 3dbf 87eb 033f
00000020: bb71 febe a877 cb39 56c2 3b3f 556e 283f
00000030: fe8a 0f3f c458 88bf 9af6 213f 73fe 70ac
00000040: 5e5e 68bf 90a5 013f d723 0b02 7732 c601
00000050: bc0f ea3f f109 0f3f 4862 433f ade8 8bbf
00000060: 009d 003f eff4 063f ffe7 56bf a61c 81bd
00000070: b44a ffbd 070d 563f f7a7 283f 5386 123f
00000080: 36ad 4dbd c9e4 143f ff8d 193f a211 4d3f
00000090: 0187 4e3f a50e 82bf afcd 213f 1921 c91e
000000a0: 838c 49bf 1a3f d43e 1ad6 f33e 7167 073f
000000b0: fd47 363f bbc8 003f 454e 483d fad6 003f
000000c0: 1d91 71bf fa2d 403f 9134 883e cf7c 763e
000000d0: af0a 283f 669c 0a3f 9ee4 343f 5dc2 a1b8
000000e0: cfa5 383f 9d2d 863e cee0 e63e ff10 893e
000000f0: 5411 0c3f 9d92 3bbd bc47 01bf b56b a6bf
00000100: 762a 133f 8bf3 a6ba ae04 e8be cefb 223f
00000110: 3151 86bf 89bb f63e 16ab a7bf 8545 0e3f
00000120: 8a3b 16bf 9283 332d 28c0 b63e 95ea 2c3f
00000130: 5314 10be e4f1 1ebf 5462 dc3e 1109 72b3
00000140: 5d9c 97bf 451f 203f 0ae1 f101 7fb8 cb01
00000150: 48a6 9e3e 2c26 253f f4c1 353f 0a3d b4bd
00000160: 4b2e 0b3f ca5c 1b3f a4c4 fc3e 73ea 343f
00000170: 1261 d5be 94d8 153f cae7 253f 5a88 023f
00000180: c67e 473f 3c44 153f 975f 4a3f 5eca 483f
00000190: 3145 e33e e35d abbf e291 1f3f a1ca ce81
000001a0: adce abbf 5972 0d3f f03c 1f3f 4e56 f43e
000001b0: 96aa 053f dc95 293f 84b9 30bf 7325 153f
000001c0: df79 57bf 7a05 af3f 898c 6ebf c6e5 20bf
000001d0: 032d 1f3f a5b2 173f 348c 1f3f 6664 faad
000001e0: 0ac7 f03e 4d55 21bf ee56 2abe 08cd 11bf
000001f0: 0d17 483f 99db 0bbf c5df d63e ab0a 56be

nw.4.bias f4 [2]
0.29790196 0.26600015
00000000: 9b86 983e 2c31 883e
