实验报告/hw10/hw10_21307303_liuzhuoyi.pth (torch, 20919 bytes, 6 tensors)

nw.0.weight f4 [64, 4]
0.34191447 -0.480903 -2.7304928 -0.6616401 0.010352364 -0.20864515 -0.051151518 -0.066449486
0.06342435 0.13799883 0.019295854 -0.059765913 -0.4707559 -0.94148326 -1.3999636 -0.80713874
0.06572614 0.07028064 -0.06166552 -0.025776774 0.33722216 0.47399324 0.86106634 0.37499037
0.11388904 0.09959025 -0.2245718 0.26850307 0.3196031 -0.34348258 -0.19642222 -0.4628566
-0.7114668 -0.16094218 -0.59479064 -0.11336647 0.023005197 0.7063834 0.6282402 0.45654458
-0.58610487 -0.4735213 -1.483359 -0.4905614 0.56402546 0.59749484 1.7551901 0.40656343
-0.0444336 0.15392405 -0.19705065 -0.0034383603 0.6690178 0.1487971 -1.0042367 0.050410636
0.35055953 -0.49563515 -0.18682744 -0.29701322 -0.040811397 0.09520593 -0.26125354 -0.08243718
-0.45984662 -0.29900333 -0.80655813 -0.22329594 0.47270218 0.70617443 1.0338144 0.55121464
0.20041116 -0.49111763 -0.24728778 -0.05635873 0.042812694 -0.13739656 1.2667398 0.05036302
0.119878985 -0.3516015 -0.22686204 -0.28835177 0.075301826 0.1808745 0.25816295 0.042894106
0.20031127 -0.46755132 -0.24404296 -0.045915637 0.29730973 -0.3663374 -0.32796514 -0.45143837
-0.062289868 -0.15594937 -0.21608444 -0.33809116 -0.06262216 0.13570182 0.92921287 0.22468907
-0.004118133 0.20166515 1.3235534 0.3092161 -0.058031872 -0.031626925 -0.23584056 -0.07759902
-0.0035590995 0.203468 -0.08087741 0.023884851 0.15277234 -0.08796313 -1.4166036 -0.21216616
0.29479343 -0.2629465 -0.3828611 -0.2138695 -0.15601106 0.16387543 -0.5022377 -0.0947822
0.26160622 -0.11442551 -1.9219795 -0.3547487 0.11188688 0.7030318 0.57329804 0.4929276
0.08127482 -0.29261822 -0.3155716 -0.08915339 -0.053132042 0.21882042 0.18966432 0.19492048
0.17424034 0.42607346 0.03630741 0.44490686 -0.0006424909 0.08054637 1.0174047 0.12642018
0.118029706 -0.2241262 -0.35758805 0.075025305 0.03486865 -0.3456047 -0.27710006 -0.31028908
-0.05501934 -0.14214337 -0.30944642 -0.25221914 0.06417749 0.08178368 0.0020820424 -0.01715605
0.26532015 -0.37436622 -0.06590561 -0.27248713 0.042522453 -0.17237614 -0.098607995 -0.28844923
0.018399429 -0.03983973 0.27302912 0.26388606 -0.7067947 -0.50548255 -0.6999594 -0.29376486
0.20097558 -0.47606507 -0.14924824 -0.17583631 0.42133582 0.7828079 1.1402706 0.68199813
0.1696823 -0.041039012 0.61611104 0.27038518 -0.013340958 -0.0107786525 -0.36197266 0.008171068
-0.034848735 0.6106768 0.52533233 0.36990175 -0.32413208 -0.4969403 -0.66133 -0.38412458
-0.073432826 0.071974106 0.028385244 -0.13223445 0.37266433 0.31773695 0.6439466 0.24732663
-0.25460058 0.077051654 -1.077417 0.014234123 -0.020493235 0.19524808 -0.50333446 0.10215233
0.04772902 0.6728285 0.3104412 0.50072426 -0.63174194 -1.0710404 -1.405518 -0.9510792
-0.046430275 -0.010290334 -0.339213 -0.051264994 0.009481417 0.025437055 0.85991406 0.13348325
-0.11980418 0.046824493 -0.22680378 0.07048897 0.24172913 0.47074747 1.017416 0.50977635
0.08467407 0.7118886 1.0121707 0.35648102 0.19645149 0.571804 1.716229 0.44656283
00000000: 6a0f af3e eb38 f6be 65c0 2ec0 3f61 29bf
00000010: f69c 293c 13a7 55be 4184 51bd ab16 88bd
00000020: a0e4 813d 914f 0d3e 5712 9e3c 1acd 74bd
00000030: eb06 f1be 0c05 71bf 0232 b3bf a5a0 4ebf
00000040: 6d9b 863d 4cef 8f3d fc94 7cbd d029 d3bc
00000050: 62a8 ac3e 3eaf f23e d86e 5c3f bdfe bf3e
00000060: a83e e93d f9f5 cb3d 26f6 65be 3c79 893e
00000070: 04a3 a33e f3dc afbe e822 49be 8afb ecbe
00000080: b022 36bf 07ce 24be 3344 18bf ae2c e8bd
00000090: 6575 bc3c 8bd5 343f 5ad4 203f 36c0 e93e
000000a0: f80a 16bf 6271 f2be b5de bdbf dd2a fbbe
000000b0: f963 103f 6cf5 183f 12aa e03f 1529 d03e
000000c0: 0200 36bd 449e 1d3e a5c7 49be 1d56 61bb
000000d0: c044 2b3f 445e 183e d48a 80bf 627b 4e3d
000000e0: 8a7c b33e e4c3 fdbe b14f 3fbe 1e12 98be
000000f0: da29 27bd 54fb c23d 06c3 85be d3d4 a8bd
00000100: 0471 ebbe f716 99be 987a 4ebf b1a7 64be
00000110: 0506 f23e d9c7 343f 0854 843f 671c 0d3f
00000120: 9538 4d3e c573 fbbe 0239 7dbe 69d8 66bd
00000130: 5d5c 2f3d afb1 0cbe 8824 a23f 7449 4e3d
00000140: 1d83 f53d 1d05 b4be 864e 68be d8a2 93be
00000150: d837 9a3d 2a37 393e ef2d 843e bbb1 2f3d
00000160: 661e 4d3e e362 efbe 66e6 79be 0912 3cbd
00000170: fb38 983e 9390 bbbe 0ceb a7be ee22 e7be
00000180: a923 7fbd 31b1 1fbe 3d45 5dbe 491a adbe
00000190: 0c40 80bd 6bf5 0a3e e5e0 6d3f e414 663e
000001a0: 67f1 86bb 4f81 4e3e 336a a93f 9351 9e3e
000001b0: d4b2 6dbd 3c8b 01bd 3080 71be 3cec 9ebd
000001c0: c83f 69bb ea59 503e 0ea3 a5bd 2aaa c33c
000001d0: 5a70 1c3e 0326 b4bd 4453 b5bf 1642 59be
000001e0: 2aef 963e eca0 86be 5f06 c4be 9b00 5bbe
000001f0: 5dc1 1fbe f6ce 273e a692 00bf 2c1d c2bd
00000200: 40f1 853e ec57 eabd 6d03 f6bf 9fa1 b5be
00000210: f324 e53d e4f9 333f a9c3 123f 0261 fc3e
00000220: 6a73 a63d 0ed2 95be 9a92 a1be 0d96 b6bd
00000230: fca0 59bd 7612 603e 5d37 423e 3c99 473e
00000240: 0f6c 323e 4d26 da3e 14b7 143d d5ca e33e
00000250: d66c 28ba 7ff5 a43d 513a 823f 4b74 013e
00000260: 8fb9 f13d 5781 65be c815 b7be dea6 993d
00000270: 6ed2 0e3d 19f3 b0be 0fe0 8dbe 36de 9ebe
00000280: f65b 61bd 088e 11be c36f 9ebe de22 81be
00000290: 7d6f 833d 347e a73d e072 083b d88a 8cbc
000002a0: 0bd8 873e eeac bfbe 85f9 86bd 6f83 8bbe
000002b0: 062c 2e3d 5f83 30be fdf2 c9bd 9eaf 93be
000002c0: 66ba 963c fc2e 23bd 79ca 8b3e 131c 873e
000002d0: 7ff0 34bf 4e67 01bf 8a30 33bf 5968 96be
000002e0: 8bcc 4d3e cdbe f3be 88d4 18be 6f0e 34be
000002f0: 54b9 d73e 1966 483f 63f4 913f 6e97 2e3f
00000300: 32c1 2d3e 8618 28bd 74b9 1d3f ed6f 8a3e
00000310: 0994 5abc f298 30bc 7b54 b9be f1df 053c
00000320: 8cbd 0ebd 5155 1c3f 2e7c 063f c363 bd3e
00000330: a4f4 a5be f66e febe ec4c 29bf faab c4be
00000340: f363 96bd 2967 933d 2c88 e83c 7868 07be
00000350: dccd be3e 6bae a23e afd9 243f 3143 7d3e
00000360: 025b 82be 42cd 9d3d cde8 89bf 3d36 693c
00000370: 6ee1 a7bc 1def 473e 87da 00bf 3e35 d13d
00000380: 817f 433d 7d3e 2c3f 26f2 9e3e 772f 003f
00000390: d7b9 21bf da17 89bf 04e8 b3bf ed79 73bf
000003a0: ac2d 3ebd ca98 28bc 54ad adbe 3efb 51bd
000003b0: f257 1b3c 5f61 d03c 5423 5c3f d5af 083e
000003c0: e55b f5bd 0acb 3f3d 403f 68be 855c 903d
000003d0: d787 773e d005 f13e b03a 823f b480 023f
000003e0: 9969 ad3d 553e 363f cf8e 813f ae84 b63e
000003f0: 942a 493e bf61 123f 64ad db3f e2a3 e43e

nw.0.bias f4 [64]
0.7951444 0.8900119 0.3101061 0.53701997 0.17344788 0.06382755 0.8691131 0.8215728
0.004807685 0.7579026 0.5892569 0.25113958 0.7549489 0.26486558 0.71079457 0.6660404
0.08041582 0.03512581 0.67211497 0.31640172 0.5425599 0.25874203 0.6465622 0.8841554
0.8433907 0.24891843 0.28085405 0.88002855 0.5811637 0.36127198 0.73463404 0.3760132
0.5993607 0.64547783 0.48557228 0.852659 0.64712054 0.22897935 0.50717866 0.7673495
0.4365293 0.18303111 0.6630889 0.6370791 0.59843045 0.91552275 0.503356 0.23054379
0.5226135 0.82040703 0.7696009 -0.024462244 0.7765447 0.07025341 0.38142222 0.16771999
0.46615008 0.68308747 0.022322295 0.14512263 0.9012252 0.29504955 0.7003636 0.3864133
00000000: 958e 4b3f d2d7 633f 3ac6 9e3e 247a 093f
00000010: 529c 313e 05b8 823d 327e 5e3f 9852 523f
00000020: c989 9d3b e805 423f 8ad9 163f 5e95 803e
00000030: 5544 413f 769c 873e a2f6 353f a081 2a3f
00000040: 0db1 a43d 15e0 0f3d ba0f 2c3f 68ff a13e
00000050: 35e5 0a3f d679 843e 1a85 253f 0258 623f
00000060: 74e8 573f 79e4 7e3e 1acc 8f3e 8d49 613f
00000070: 25c7 143f a4f8 b83e fa10 3c3f cd84 c03e
00000080: b46f 193f 093e 253f ee9c f83e dc47 5a3f
00000090: b1a9 253f 9079 6a3e 76d6 013f 0471 443f
000000a0: c580 df3e 826c 3b3e 32c0 293f 9e17 233f
000000b0: bd32 193f b35f 6a3f f0db 003f ac13 6c3e
000000c0: 00ca 053f 3206 523f 9104 453f 0b65 c8bc
000000d0: a2cb 463f 05e1 8f3d c649 c33e cabe 2b3e
000000e0: 39ab ee3e d2de 2e3f 3fdd b63c 079b 143e
000000f0: b2b6 663f bc10 973e 074b 333f f7d7 c53e

nw.2.weight f4 [64, 64]
-0.41110498 0.533916 0.14652598 0.070707574 0.11947293 -0.24136272 0.39624095 0.38913402
-0.3595465 0.3186006 -0.53600913 -1.2077296 0.34915888 -0.6829228 0.22325593 0.4454123
-0.13111484 -0.13784997 0.35411933 -1.1678064 0.2690188 0.3308398 0.32668024 0.30522433
0.36597225 -0.79214305 -0.47952035 0.4984884 0.38696152 -0.65332836 0.45499605 -0.23666473
-0.831306 0.4165318 0.46886224 0.47151846 0.17795399 -0.5663467 0.36517218 0.5179162
0.13993369 0.12124366 0.5028837 0.44578335 -0.24965964 -0.4910606 0.39765397 -0.47184703
-0.41573134 0.469923 0.38911933 0.15732585 0.3600583 -0.2815984 -0.1224886 0.30003282
0.33434546 -0.12746768 -0.0347365 -0.18930845 0.42214045 -0.44505355 0.21102956 -0.9316907
-0.7987072 0.44663826 0.18777853 -0.22344036 0.08428539 -0.2992535 0.34001315 0.22757512
-0.4171705 0.37394625 -0.8366983 -1.0957688 0.24731974 -0.667242 0.21388325 0.33059794
-0.22794394 -0.23664941 0.17280655 -1.222614 0.29064256 0.36901772 0.2304114 0.21244444
0.20835161 -0.9170489 -0.4253468 0.3829673 0.25131288 -0.70688576 0.26315862 -0.46565327
-0.9548349 0.33380365 0.1639503 0.464266 0.21943182 -0.6341473 0.17573754 0.2290163
0.047348186 0.09069676 0.40130314 0.44963583 -0.21127298 -0.5204836 0.21203497 -0.057780422
-0.12633611 0.39965507 0.4523767 0.27694118 0.32991266 -0.2751835 -0.5528277 0.1977046
0.06470586 -0.5249644 -0.061411574 -0.09087706 0.31464866 -0.19945349 0.4475835 -0.886141
-0.55234814 0.43797287 0.09522564 0.014411854 0.1126508 -0.21724293 0.30128223 0.35437265
-0.3455197 0.3532373 -0.46175745 -1.0206643 0.39359277 -0.8263453 0.06947868 0.3576954
-0.11352725 -0.089882925 0.2206593 -1.031168 0.45314702 0.24572808 0.41317743 0.45123714
0.3061293 -0.65322053 -0.45785958 0.30912316 0.3118227 -0.46754017 0.41977257 -0.24512199
-0.9203642 0.4562031 0.33372152 0.41000763 0.27888727 -0.45378533 0.2403131 0.3560226
0.20707835 0.114697225 0.3889389 0.33807525 -0.06821231 -0.3579248 0.23517862 -0.50509024
-0.26041383 0.5129667 0.17158014 0.1371849 0.3964302 -0.2985447 -0.16623326 0.27032065
0.32032138 -0.07998566 -0.022626312 -0.2329406 0.34347183 -0.4912328 0.14512181 -0.8205624
-0.6173393 0.2329883 0.22333951 -0.28755358 0.13322853 -0.25690103 0.44449908 0.3098117
-0.40915284 0.33722615 -1.0059024 -0.966778 0.26675466 -0.7215981 0.21700513 0.24297217
-0.36577278 -0.24352232 0.03942999 -1.1625142 0.12612063 0.39619014 0.33597982 0.29267365
0.2201462 -0.839143 -0.5256413 0.21027677 0.35702884 -0.5516745 0.17090413 -0.42224658
-0.7900392 0.41175425 0.13768828 0.30053088 0.19354533 -0.6305003 0.26072308 0.29033697
0.4152591 0.13752487 0.35859922 0.20807767 -0.111066476 -0.43539682 0.08000487 0.035455134
-0.102094695 0.3048838 0.33918732 0.25169927 0.24292979 -0.2843665 -0.53645176 0.18254083
-0.05193116 -0.6174668 -0.05031319 -0.2402227 0.20983739 -0.27647483 0.308881 -0.9550084
00000000: 5a7c d2be b8ae 083f e80a 163e 22cf 903d
00000010: 39ae f43d ca27 77be 18e0 ca3e 933c c73e
00000020: 7b16 b8be 9e1f a33e e537 09bf e296 9abf
00000030: f4c4 b23e 07d4 2ebf 349d 643e 150d e43e
00000040: f842 06be 8b28 0dbe 214f b53e ae7a 95bf
00000050: d5bc 893e d663 a93e a242 a73e 5d46 9c3e
00000060: b760 bb3e e3c9 4abf b183 f5be df39 ff3e
00000070: d21f c63e 8740 27bf 3ef5 e83e 3d58 72be
00000080: 78d0 54bf a843 d53e b60e f03e de6a f13e
00000090: 9239 363e 19fc 10bf d9f7 ba3e 2896 043f
000000a0: c74a 0f3e 994e f83d fcbc 003f b73d e43e
000000b0: c7a6 7fbe 4c6c fbbe 4d99 cb3e ef95 f1be
000000c0: bdda d4be bf99 f03e a63a c73e 071a 213e
000000d0: 9059 b83e aa2d 90be 4edb fabd e79d 993e
000000e0: 542f ab3e e386 02be dc47 0ebd 13da 41be
000000f0: cb22 d83e 0fde e3be 2218 583e 4883 6ebf
00000100: 1378 4cbf c5ad e43e 0449 403e 8dcd 64be
00000110: d29d ac3d c137 99be 3416 ae3e 7409 693e
00000120: 5f97 d5be e275 bf3e dc31 56bf 2742 8cbf
00000130: 6341 7d3e 5fd0 2abf 3604 5b3e 2244 a93e
00000140: 236a 69be 3954 72be 33f4 303e 9e7e 9cbf
00000150: 1acf 943e e4ef bc3e f7f0 6b3e 098b 593e
00000160: 205a 553e b7c3 6abf 0ec7 d9be 4a14 c43e
00000170: 15ac 803e 77f6 34bf babc 863e 1b6a eebe
00000180: 0f70 74bf 50e8 aa3e 96e2 273e 46b4 ed3e
00000190: bcb2 603e 7a57 22bf 8bf4 333e 4083 6a3e
000001a0: 2cf0 413d 39bf b93d 9b77 cd3e ab36 e63e
000001b0: f257 58be 6a3e 05bf b21f 593e 2aab 6cbd
000001c0: 415e 01be 979f cc3e eb9d e73e 3ccb 8d3e
000001d0: 50ea a83e dae4 8cbe 1e86 0dbf 1373 4a3e
000001e0: 8284 843d 1164 06bf b48a 7bbd c11d babd
000001f0: a119 a13e 893d 4cbe aa29 e53e 23da 62bf
00000200: b066 0dbf fb3d e03e a905 c33d b21f 6c3c
00000210: 76b5 e63d ee74 5ebe aa41 9a3e 5570 b53e
00000220: f5e7 b0be 85db b43e 796b ecbe 21a5 82bf
00000230: fe84 c93e 5e8b 53bf d74a 8e3d da23 b73e
00000240: fa80 e8bd 8a14 b8bd 83f4 613e 50fd 83bf
00000250: e302 e83e 24a0 7b3e fe8b d33e 8e08 e73e
00000260: fbbc 9c3e 7639 27bf 926c eabe 6445 9e3e
00000270: 3aa7 9f3e 6d61 efbe 6eec d63e 4201 7bbe
00000280: fd9c 6bbf 7493 e93e 8cdd aa3e 85ec d13e
00000290: 50ca 8e3e 8d56 e8be a314 763e 9848 b63e
000002a0: 590c 543e 61e6 ea3d 0023 c73e 3318 ad3e
000002b0: e5b2 8bbd eb41 b7be aad2 703e 984d 01bf
000002c0: f654 85be c951 033f b4b2 2f3e 337a 0c3e
000002d0: e6f8 ca3e dada 98be 0d39 2abe 7867 8a3e
000002e0: 2a01 a43e 86cf a3bd d15a b9bc fb87 6ebe
000002f0: 8adb af3e de82 fbbe d09a 143e 6110 52bf
00000300: f309 1ebf 7c94 6e3e 1db3 643e 393a 93be
00000310: 0f6d 083e 8888 83be 6295 e33e a49f 9e3e
00000320: 7b7c d1be e8a8 ac3e 69c1 80bf c37e 77bf
00000330: 1194 883e a7ba 38bf 9836 5e3e b2cd 783e
00000340: 9246 bbbe ea5d 79be 5781 213d 44cd 94bf
00000350: c425 013e 6fd9 ca3e 8c05 ac3e 52d9 953e
00000360: 016e 613e 13d2 56bf 6e90 06bf cb52 573e
00000370: 7ccc b63e 8a3a 0dbf 7e01 2f3e b430 d8be
00000380: 0240 4abf 74d1 d23e 28fe 0c3e 2fdf 993e
00000390: bf30 463e 7868 21bf 7f7d 853e 0ca7 943e
000003a0: d79c d43e 52d3 0c3e 519a b73e 5012 553e
000003b0: d276 e3bd 55ec debe 98d9 a33d 6739 113d
000003c0: 0617 d1bd bb19 9c3e f6a9 ad3e bade 803e
000003d0: 96c2 783e 7c98 91be e754 09bf fceb 3a3e
000003e0: c5b5 54bd 4e12 1ebf 3415 4ebd f1fc 75be
000003f0: 9ddf 563e 1c8e 8dbe a725 9e3e 6e7b 74bf

nw.2.bias f4 [64]
0.32555592 0.24251564 0.29220915 0.25060928 -0.0006437958 0.3880007 0.11352804 0.18709494
0.42813653 0.20042722 0.08361306 0.28454447 0.33028427 0.03362055 0.31587586 0.3538317
0.39176407 0.24091606 0.42614666 0.0824169 0.36398667 0.042160437 0.3673851 0.13770574
0.4651097 0.13534254 0.1959598 -2.7893542e-34 0.48377 0.47021994 -4.679113e-21 0.10021891
0.16151792 0.43447924 0.20332535 0.049352948 0.4675504 0.31912488 -0.0644717 0.38567418
-0.00020844457 0.12831521 0.016617985 0.24340609 0.03943894 0.2904751 0.34762543 0.19226862
0.37340704 0.4368174 0.06941843 -1.2046532e-11 0.3316687 0.3050786 0.11512133 -0.0637893
0.14354797 -7.761215e-06 0.22878695 0.47860938 0.4376321 0.4757418 0.40067947 -4.4603486e-05
00000000: 44af a63e 0556 783e 709c 953e dc4f 803e
00000010: 68c4 28ba 07a8 c63e 6481 e83d d195 3f3e
00000020: b634 db3e cb3c 4d3e 533d ab3d d0af 913e
00000030: 051b a93e b4b5 093d 7bba a13e 6e29 b53e
00000040: 4d95 c83e b3b2 763e e52f da3e 31ca a83d
00000050: 765c ba3e 6cb0 2c3d e619 bc3e bc02 0d3e
00000060: dc22 ee3e 3c97 0a3e b0a9 483e 6762 b987
00000070: b4b0 f73e abc0 f03e 9bc5 b09d 923f cd3d
00000080: f464 253e 1074 de3e 8534 503e 5126 4a3d
00000090: c462 ef3e 5664 a33e bd09 84bd 1677 c53e
000000a0: ea91 5ab9 1065 033e 7122 883c 723f 793e
000000b0: ba8a 213d 27b9 943e f6fb b13e 11e2 443e
000000c0: 352f bf3e 88a6 df3e 402b 8e3d c2ec 53ad
000000d0: 7bd0 a93e 4333 9c3e bbc4 eb3d f7a3 82bd
000000e0: 3dfe 123e 2a36 02b7 2047 6a3e 4a0c f53e
000000f0: 5111 e03e 6e94 f33e dc25 cd3e a114 3bb8

nw.4.weight f4 [2, 64]
1.1095372 2.0049336 0.90776837 1.7498885 1.1348332 1.1456239 0.52555966 -0.9255013
1.1829623 0.8265089 -0.7460122 1.9121219 1.8627214 -0.21177827 1.0826653 1.9933267
1.0574147 1.3095247 2.021809 -0.23397984 1.3531177 -0.24458194 -0.6000129 0.77794945
0.9159022 -1.2028219 0.13086034 1.059677e-21 0.74351466 1.1435648 -7.138514e-05 0.7976881
-0.71633255 1.2848588 1.2241789 1.1313967 0.8210464 1.8548987 -0.8877129 0.94588274
-4.906112e-10 0.15911207 -0.31173944 1.0891497 -0.42206156 1.2319361 -0.46076736 1.1989269
2.180491 0.8052328 -0.04711733 -0.0012243217 0.88637394 1.1312478 0.103060946 -0.3990272
0.054762214 -0.0038392153 -0.5165733 0.9265768 1.2922071 0.86078644 1.3040321 0.00018297935
1.2772189 1.8196737 1.186127 1.8881019 -0.38830182 1.1187282 0.23515236 0.19543095
0.82363194 0.08173707 -0.49839762 1.7520838 2.0366416 -0.030673642 1.1467755 1.926905
1.0862211 1.1453694 1.7745017 0.3966976 0.9417005 -0.22332285 0.54647917 -1.4472375
1.0208744 -0.1741856 0.43350068 4.134151e-19 -0.12987739 1.0371087 -3.0049741e-06 -0.29236287
0.32686716 1.3386099 1.2069563 -0.7316806 0.8156022 1.9555427 -0.8639398 0.9596012
7.904084e-13 1.0348734 0.35088906 1.0891775 0.43517098 0.8446018 0.7306373 0.8440907
1.8806497 1.0759487 0.36173648 0.0012257599 0.9509235 0.9972813 -0.8032289 -1.1515349
1.1169419 -0.00046669997 -1.1353648 1.0246778 1.3574398 0.9771756 1.3056817 -0.0011872334
00000000: 5105 8e3f d550 0040 8263 683f 59fc df3f
00000010: 3742 913f cea3 923f 148b 063f a7ed 6cbf
00000020: 4f6b 973f 1696 533f a8fa 3ebf 69c0 f43f
00000030: a86d ee3f 67dc 58be c794 8a3f 5425 ff3f
00000040: 5d59 873f 819e a73f 5265 0140 6998 6fbe
00000050: f632 ad3f b073 7abe 729a 19bf b227 473f
00000060: 9178 6a3f 11f6 99bf 4100 063e 4522 a01c
00000070: fa56 3e3f 5560 923f 9bb4 95b8 4a35 4c3f
00000080: 9261 37bf 4176 a43f e5b1 9c3f 9bd1 903f
00000090: 1930 523f 526d ed3f 2741 63bf 5f25 723f
000000a0: b2db 06b0 46ee 223e 509c 9fbe 4269 8b3f
000000b0: 7418 d8be 15b0 9d3f b3e9 ebbe 7076 993f
000000c0: 2a8d 0b40 bd23 4e3f 1afe 40bd 6b79 a0ba
000000d0: 67e9 623f bacc 903f 9e11 d33d 4b4d ccbe
000000e0: 584e 603d 589b 7bbb 263e 04bf 2334 6d3f
000000f0: 0b67 a53f 805c 5c3f 86ea a63f 25de 3f39
00000100: e97b a33f 11eb e83f 02d3 973f 53ad f13f
00000110: 7fcf c6be 7c32 8f3f c8cb 703e 0d1f 483e
00000120: 8bd9 523f c465 a73d f92d ffbe 4844 e03f
00000130: 5658 0240 4a47 fbbc 8ac9 923f d3a4 f63f
00000140: 4b09 8b3f 779b 923f df22 e33f f31b cb3e
00000150: 4913 713f bfae 64be 0fe6 0b3f 143f b9bf
00000160: 03ac 823f b65d 32be cdf3 dd3e 8609 f420
00000170: 94fe 04be fabf 843f 10a9 49b6 96b0 95be
00000180: 225b a73e 9257 ab3f 8b7d 9a3f 6b4f 3bbf
00000190: 4ecb 503f 394f fa3f 292b 5dbf 6da8 753f
000001a0: ed7a 5e2b bb76 843f bba7 b33e 2b6a 8b3f
000001b0: bbce de3e d337 583f 0c0b 3b3f 5416 583f
000001c0: 21b9 f03f b0b8 893f 8635 b93e ada9 a03a
000001d0: b96f 733f d44d 7f3f 69a0 4dbf 7f65 93bf
000001e0: f4f7 8e3f 69af f4b9 a253 91bf a428 833f
000001f0: 96c0 ad3f 2e28 7a3f 9420 a73f f19c 9bba

nw.4.bias f4 [2]
0.3167345 0.32631052
00000000: 062b a23e 2c12 a73e
