实验报告/hw10/hw10_21307303_liuzhuoyi_1000.pth (torch, 20887 bytes, 6 tensors)

nw.0.weight f4 [64, 4]
-0.5099247 -1.207636 -2.2254877 -0.88338214 0.10399334 -0.28174892 0.39948973 0.00023135898
0.323534 0.2123326 0.6498752 0.13010861 -1.4751356 -0.24268793 -0.016622698 -0.1729837
0.18336447 0.07727517 0.32716927 0.046635807 0.6113765 0.020981368 0.48013604 0.021748265
0.15821591 0.015794126 -0.053616963 0.3631327 0.40222377 -0.43702677 0.14278995 -0.410707
0.5194303 -0.09963159 0.04527282 -0.10602126 0.11414272 0.74612796 1.1104592 0.59893596
-0.4735612 -0.30251217 -1.0134895 -0.23430991 0.5113474 0.7824953 2.074403 0.5843956
-0.031257894 0.10409261 -0.06775938 0.040962026 0.20443845 0.102614276 -0.61724454 -0.049629524
0.52792615 -0.5182915 -0.32871684 -0.23441617 -0.027965432 0.037440293 -0.13471897 -0.07108506
0.6092286 0.20708145 1.3885465 0.24060448 0.8583356 0.5427209 1.4672211 0.38571903
0.3837932 -0.53154767 -0.21258663 -0.03419678 -0.016051833 -0.17727932 1.2467698 0.18529727
0.19111368 -0.41255122 0.016145503 -0.30025405 0.15271062 0.19111477 0.47922176 0.13698746
0.38462865 -0.48221904 -0.11266186 -0.023380743 0.37661016 -0.4442343 -0.13867496 -0.4137378
-0.014177953 -0.21743296 0.047520958 -0.33498517 -0.29589713 0.05866437 0.17834164 0.042348985
0.15215652 0.118839845 1.3241823 0.58229697 -0.022287231 -0.09091489 -0.017887097 -0.044502255
0.02206798 0.13695662 0.1923695 0.07420785 0.028950358 0.06994395 -1.5738124 -0.19514517
0.37613565 -0.3462994 -0.26027548 -0.14979066 -0.090619355 -0.5533944 -1.2528459 -0.43732494
0.2898788 -0.36318526 -1.5536534 -0.47478637 0.12397315 0.6978403 0.68311644 0.5652964
0.236081 -0.28860727 -0.2226102 -0.07506649 0.019427527 0.14421524 0.7354645 0.2711212
0.38731113 0.59490496 0.11042072 0.34921095 0.24512479 0.08698964 0.33201614 0.080838464
0.2440722 -0.22358882 -0.27763376 0.093753345 0.095029235 -0.40457684 -0.085312165 -0.31248912
0.11630017 -0.275903 0.21078472 -0.15533967 0.18565339 0.081361145 0.31815538 0.05213779
0.37388304 -0.46608797 0.413816 -0.19254766 0.112868 -0.23786218 0.28970727 -0.24829489
0.12065156 -0.13988419 0.6770677 0.40483394 -0.8295311 0.010791044 -0.21263126 0.0745051
0.36146373 -0.544201 -0.031315785 -0.14703849 0.3085226 1.1836258 0.8995615 0.70792204
0.2652143 -0.13506187 0.5658221 0.56475645 0.03625609 -0.06948973 -0.25721568 0.056012236
0.07382205 0.71046895 0.897298 0.3773127 -0.31042653 -0.25754243 -0.56144613 -0.17945555
-0.029178157 0.0089863045 0.46456578 -0.10376596 0.7533233 -0.41216174 -1.0021124 -0.43029281
0.23200728 0.005099935 -0.24112815 -0.0147241745 -0.01626681 0.13785215 -0.123338215 -0.18513575
0.020584008 0.7347056 0.61524296 0.37882707 -0.5679051 -0.20808548 0.4370671 -0.2819279
-1.1221923e-22 8.65959e-23 3.622089e-24 1.4305122e-23 -0.04071492 -0.09331846 0.44614196 0.08855401
-0.064873315 -0.015997015 -0.024559619 0.10826668 0.30377996 0.77578175 1.018828 0.5923485
0.08109209 0.6984667 1.4784079 0.40025684 0.03370256 0.49787956 1.4900742 0.50203973
00000000: 6d8a 02bf d193 9abf 646e 0ec0 5525 62bf
00000010: 76fa d43d 6541 90be eb89 cc3e f498 7239
00000020: 40a6 a53e b86d 593e 395e 263f 313b 053e
00000030: 3ed1 bcbf 2f83 78be 532c 88bc a422 31be
00000040: e5c3 3b3e 7242 9e3d bb82 a73e 3005 3f3d
00000050: 2c83 1c3f 1ee1 ab3c 64d4 f53e 6b29 b23c
00000060: 5a03 223e af62 813c 769d 5bbd 87ec b93e
00000070: 46f0 cd3e f9c1 dfbe 8737 123e 3048 d2be
00000080: 62f9 043f a60b ccbd fe6f 393d ad21 d9bd
00000090: a9c3 e93d 3e02 3f3f 8723 8e3f de53 193f
000000a0: 9d76 f2be e0e2 9abe 06ba 81bf f0ee 6fbe
000000b0: aae7 023f 9d51 483f 05c3 0440 f39a 153f
000000c0: 4708 00bd 822e d53d 6ec5 8abd ccc7 273d
000000d0: 5058 513e 6f27 d23d bd03 1ebf 5448 4bbd
000000e0: 2b26 073f c0ae 04bf 934d a8be cb0a 70be
000000f0: c317 e5bc fe5a 193d c5f3 09be 0b95 91bd
00000100: 68f6 1b3f 290d 543e e4bb b13f 0561 763e
00000110: e2bb 5b3f c2ef 0a3f e7cd bb3f f77c c53e
00000120: 8b80 c43e 8213 08bf 4fb0 59be ec11 0cbd
00000130: 227f 83bc b688 35be 2796 9f3f 91be 3d3e
00000140: 4eb3 433e ea39 d3be 9343 843c e6ba 99be
00000150: 2c60 1c3e 97b3 433e 8e5c f53e 7146 0c3e
00000160: 0cee c43e 6ae5 f6be 43bb e6bd f988 bfbc
00000170: 0cd3 c03e ae72 e3be cf00 0ebe 71d5 d3be
00000180: a54a 68bc bfa6 5ebe 56a5 423d 2d83 abbe
00000190: d47f 97be 0d4a 703d 319f 363e 2176 2d3d
000001a0: ebce 1b3e 4e62 f33d ce7e a93f 6a11 153f
000001b0: b693 b6bc 9631 babd f687 92bc ff47 36bd
000001c0: e9c7 b43c 5b3e 0c3e 83fc 443e 49fa 973d
000001d0: 4d29 ed3c c63e 8f3d af72 c9bf 23d4 47be
000001e0: da94 c03e 284e b1be d442 85be b962 19be
000001f0: a496 b9bd 41ab 0dbf 415d a0bf 0ee9 dfbe
00000200: fe6a 943e 6bf3 b9be 1dde c6bf 3317 f3be
00000210: a3e5 fd3d a9a5 323f b8e0 2e3f 44b7 103f
00000220: 38bf 713e 55c4 93be eef3 63be 76bc 99bd
00000230: 7a26 9f3c 29ad 133e 6747 3c3f 66d0 8a3e
00000240: a54d c63e b14b 183f 4224 e23d c7cb b23e
00000250: fe01 7b3e a027 b23d 05fe a93e a38e a53d
00000260: 10ee 793e 78f4 64be 0326 8ebe c101 c03d
00000270: b09e c23d b224 cfbe 25b8 aebd 93fe 9fbe
00000280: c92e ee3d 2843 8dbe f3d7 573e 5d11 1fbe
00000290: ec1b 3e3e aca0 a63d 43e5 a23e 6f8e 553d
000002a0: 996d bf3e 15a3 eebe b1df d33e 372b 45be
000002b0: 5727 e73d 2592 73be 8354 943e 0441 7ebe
000002c0: 2a18 f73d cd3d 0fbe 4f54 2d3f 6546 cf3e
000002d0: 265c 54bf ebcc 303c 02bc 59be 2196 983d
000002e0: c611 b93e c250 0bbf fb44 00bd 4291 16be
000002f0: adf6 9d3e 0d81 973f aa49 663f 613a 353f
00000300: 2bca 873e a94d 0abe b8d9 103f e193 103f
00000310: 4481 143d a250 8ebd c6b1 83be 166d 653d
00000320: 0430 973d 4be1 353f 52b5 653f 212f c13e
00000330: 3af0 9ebe 9adc 83be efba 0fbf 32c3 37be
00000340: 0807 efbc 4b3b 133c 91db ed3e 3f83 d4bd
00000350: ccd9 403f dd06 d3be 3845 80bf 574f dcbe
00000360: 5193 6d3e 5b1d a73b 4cea 76be aa3d 71bc
00000370: f941 85bc 1d29 0d3e bf98 fcbd 3a94 3dbe
00000380: cb9f a83c ab15 3c3f 9080 1d3f 9ff5 c13e
00000390: 3b62 11bf 5c14 55be 42c7 df3e db58 90be
000003a0: 2baa 079b 4460 d11a 6f1f 8c18 c459 8a19
000003b0: b0c4 26bd c01d bfbd b86c e43e ce5b b53d
000003c0: 4ddc 84bd 2c0c 83bc 4131 c9bc ecba dd3d
000003d0: 0c89 9b3e a299 463f f568 823f 27a4 173f
000003e0: 9c13 a63d b7ce 323f 783c bd3f 77ee cc3e
000003f0: b20b 0a3d 12ea fe3e c0ba be3f ad85 003f

nw.0.bias f4 [64]
0.46447527 0.82690465 0.255311 0.5317326 0.11925501 -0.11313661 0.81256354 0.7769285
0.14615679 0.6946408 0.4605176 0.23647296 0.7033818 0.1750594 0.6827044 0.6155685
0.17322955 0.18224737 0.64857763 0.31948704 0.5121101 0.18182978 0.60429484 0.84209645
0.7920004 0.17854682 0.22255762 0.8244284 0.5287554 0.2721279 0.6888854 0.22899953
0.33002633 0.6105203 0.48055103 0.78363866 0.6300294 0.004911389 0.4616938 0.7184629
0.27414742 0.12101403 0.60780764 0.5802504 0.6144851 0.5991189 0.4866376 0.3183297
0.5303027 0.7684517 0.724243 -0.062273737 0.72208786 0.29305798 0.00022679126 -0.12420756
0.4050524 1.0526807 -3.8499997e-22 -0.12667845 0.83818716 0.21917962 0.6642013 0.1843382
00000000: b4cf ed3e 06b0 533f 20b8 823e a11f 083f
00000010: f83b f43d 2bb4 e7bd 2a04 503f c9e4 463f
00000020: 20aa 153e fbd3 313f f6c8 eb3e f825 723e
00000030: d410 343f c542 333e b7c5 2e3f e695 1d3f
00000040: 1663 313e 0e9f 3a3e 2f09 263f ce93 a33e
00000050: a619 033f 9631 3a3e 11b3 1a3f a293 573f
00000060: 8ac0 4a3f fad4 363e 25e6 633e bd0d 533f
00000070: 845c 073f 5954 8b3e cb5a 303f da7e 6a3e
00000080: 36f9 a83e 0f4b 1c3f c90a f63e 8b9c 483f
00000090: 9b49 213f b8ef a03b 2163 ec3e 2fed 373f
000000a0: 0d5d 8c3e 34d6 f73d 4899 1b3f 4a8b 143f
000000b0: e54e 1d3f db5f 193f 9028 f93e 1cfc a23e
000000c0: ebc1 073f 40b9 443f fd67 393f bf12 7fbd
000000d0: c0da 383f b20b 963e d1ce 6d39 8960 febd
000000e0: 0763 cf3e 3ebe 863f dcb7 e89b ffb7 01be
000000f0: 6f93 563f 9f70 603e 1909 2a3f 27c3 3c3e

nw.2.weight f4 [64, 64]
-0.13803165 0.4633112 0.08792859 0.25920698 0.06925274 -0.3157429 0.33945075 0.32052332
-0.24267767 0.26222286 -0.09427078 -1.2258145 0.25467327 -0.38884115 0.22513355 0.34635943
-0.51269066 -0.3713398 0.29585522 -1.2450238 0.19955148 0.31820953 0.2730169 0.22928461
0.2559978 -0.7261582 -0.22479714 0.4061269 0.30530235 -0.3102285 0.39961377 -0.74772906
-0.53544724 0.37436712 0.4250058 0.3937295 0.23279487 -0.2349154 0.30099383 0.43573335
-0.015755037 0.0700304 0.4633419 0.36430424 -0.3421361 -0.17918886 0.3665225 -0.45067117
-0.4601456 0.38715833 0.33713725 0.2670381 0.25894022 -0.26513606 -0.23083344 -0.13959505
0.2519137 -0.05833244 3.3685613e-23 0.11635255 0.3280954 -0.31605765 0.15262336 -0.5225411
-0.48533857 0.3722402 0.16068539 0.0798898 0.06413213 -0.3784561 0.2741735 0.17680192
-0.34427765 0.29979044 -0.30437124 -1.1413355 0.1669304 -0.3644206 0.2204823 0.25093073
-0.56813985 -0.43068975 0.11038465 -1.2618874 0.23364024 0.33466694 0.1696788 0.15628135
0.118948735 -0.82536906 -0.16941103 0.30039877 0.17997001 -0.2863361 0.21376844 -1.0680765
-0.57285124 0.2638082 0.10667159 0.387561 0.2404489 -0.32410672 0.10772439 0.15172607
-0.061227787 0.062257014 0.35775754 0.38232273 -0.29866073 -0.1770012 0.16641527 -0.09774282
-0.16233051 0.32394937 0.38206133 0.30336735 0.246739 -0.16748315 -0.18094876 -0.07307386
0.0036662123 -0.4976224 -6.655112e-23 0.12730631 0.22737823 -0.14704613 0.3747913 -0.455979
-0.2363438 0.38479578 0.08936001 0.20206434 0.12468174 -0.16569605 0.27787486 0.32384762
-0.09919359 0.35378486 -0.006482935 -0.9792848 0.33338782 -0.48763478 0.10463088 0.28848985
-0.39066187 -0.23377897 0.18608966 -1.0959233 0.41368252 0.29343432 0.3914472 0.41622108
0.21365313 -0.5799899 -0.13508232 0.23478226 0.26710618 -0.11745384 0.4038976 -0.74521464
-0.58280003 0.4773559 0.31688 0.36157855 0.4049094 -0.086767845 0.20492128 0.28647822
0.05737595 0.12395494 0.37762585 0.27908185 -0.12966838 -0.05069731 0.22563471 -0.4166235
-0.26337123 0.45902666 0.16950089 0.24626438 0.3228609 -0.1750228 -0.11483503 -0.1630005
0.3054322 0.00017613085 1.9980064e-23 0.11260072 0.2683131 -0.30148813 0.13927136 -0.3882402
-0.3608967 0.16264535 0.20928451 0.031834666 0.09252581 -0.33142555 0.40083307 0.23806758
-0.2788578 0.29213357 -0.4439665 -1.0167736 0.18472363 -0.38530225 0.21714534 0.14925174
-0.52053475 -0.38524652 -0.009162366 -1.1484816 0.041751966 0.35240427 0.2965991 0.21902387
0.11191846 -0.70031184 -0.16302338 0.12498625 0.28249708 -0.26112565 0.11254801 -1.0109277
-0.45005915 0.3776793 0.082496874 0.237498 0.24951996 -0.26583233 0.21938214 0.20044415
0.32311413 0.090470426 0.30417478 0.11584197 -0.14082523 -0.050010666 0.034626678 0.015486928
-0.087150835 0.23358503 0.2870134 0.28880635 0.14878052 -0.2755 -0.20166229 -0.16468434
-0.08718672 -0.5413574 -6.132702e-23 0.13648398 0.13178527 -0.17251767 0.25083008 -0.5043609
00000000: 2b58 0dbe 2037 ed3e e813 b43d c7b6 843e
00000010: 61d4 8d3d 0ea9 a1be 7dcc ad3e a21b a43e
00000020: 7f80 78be 1342 863e 0a11 c1bd 7de7 9cbf
00000030: 8964 823e 3016 c7be 6989 663e 0656 b13e
00000040: b23f 03bf 4020 bebe 567a 973e f15c 9fbf
00000050: 3957 4c3e 5cec a23e dfc8 8b3e 96c9 6a3e
00000060: 2512 833e 81e5 39bf 3931 66be ddef cf3e
00000070: 9750 9c3e 45d6 9ebe 2d9a cc3e 2c6b 3fbf
00000080: 1213 09bf 0cad bf3e 5c9a d93e ea96 c93e
00000090: c761 6e3e aa8d 70be dd1b 9a3e 7118 df3e
000000a0: b510 81bc 196c 8f3d 263b ed3e 1686 ba3e
000000b0: 772c afbe 497d 37be d6a8 bb3e 5fbe e6be
000000c0: 3498 ebbe 9e39 c63e 419d ac3e 38b9 883e
000000d0: d093 843e eabf 87be 9a5f 6cbe 01f2 0ebe
000000e0: d5fa 803e ffed 6ebd c5e4 221a 3f4a ee3d
000000f0: 1ffc a73e 4fd2 a1be 4c49 1c3e 41c5 05bf
00000100: 4c7e f8be 4496 be3e b68a 243e 439d a33d
00000110: b557 833d ffc4 c1be 7860 8c3e 900b 353e
00000120: 2945 b0be 227e 993e 8cd6 9bbe 4817 92bf
00000130: ceef 2a3e 5695 babe 1dc6 613e fe79 803e
00000140: 9d71 11bf 5e83 dcbe 5911 e23d 8785 a1bf
00000150: 633f 6f3e 7759 ab3e 48c0 2d3e 3808 203e
00000160: 659b f33d 634b 53bf 167a 2dbe decd 993e
00000170: 0f4a 383e a59a 92be 1de6 5a3e bbb6 88bf
00000180: 61a6 12bf de11 873e a276 da3d 656e c63e
00000190: 3d38 763e 51f1 a5be 9b9e dc3d 145e 1b3e
000001a0: fdc9 7abd 3601 7f3d ff2b b73e cebf c33e
000001b0: 0fea 98be cd3f 35be c468 2a3e 632d c8bd
000001c0: f839 26be b1dc a53e 8b9d c33e f752 9b3e
000001d0: 26a9 7c3e b480 2bbe a24a 39be bfa7 95bd
000001e0: d644 703b 5dc8 febe 26e9 a09a 965c 023e
000001f0: d7d5 683e 4393 16be a5e4 bf3e 1476 e9be
00000200: 1c04 72be f403 c53e 6202 b73d f4e9 4e3e
00000210: 2459 ff3d 3aac 29be 9d45 8e3e 5bcf a53e
00000220: 0226 cbbd 4a23 b53e cd6e d4bb 69b2 7abf
00000230: cfb1 aa3e 44ab f9be b748 d63d f1b4 933e
00000240: d504 c8be c163 6fbe 4a8e 3e3e 3747 8cbf
00000250: 32ce d33e 063d 963e c46b c83e ee1a d53e
00000260: e3c7 5a3e 387a 14bf 0553 0abe c36a 703e
00000270: 24c2 883e a48b f0bd abcb ce3e 63c6 3ebf
00000280: 6232 15bf fe67 f43e 183e a23e d320 b93e
00000290: 4950 cf3e 57b3 b1bd e2d6 513e 46ad 923e
000002a0: 0b03 6b3d 16dc fd3d 2d58 c13e d1e3 8e3e
000002b0: cac7 04be fca7 4fbd c90c 673e ad4f d5be
000002c0: 98d8 86be 8b05 eb3e a491 2d3e bb2c 7c3e
000002d0: 064e a53e 2d39 33be a12e ebbd 9ae9 26be
000002e0: 9c61 9c3e c4af 3839 3e3c c119 359b e63d
000002f0: 5660 893e a75c 9abe 279d 0e3e 6bc7 c6be
00000300: 74c7 b8be 818c 263e ae4e 563e 1165 023d
00000310: 2c7e bd3d 9cb0 a9be fe39 cd3e fdc7 733e
00000320: 73c6 8ebe 8892 953e 944f e3be a325 82bf
00000330: 3128 3d3e 5646 c5be 595b 5e3e 73d5 183e
00000340: c441 05bf 083f c5be c01d 16bc 7201 93bf
00000350: 1c04 2b3d 556e b43e d6db 973e cb47 603e
00000360: 8135 e53d a347 33bf 9aef 26be cbf8 ff3d
00000370: 75a3 903e 43b2 85be 927f e63d 1466 81bf
00000380: 276e e6be 2e5f c13e 1ff4 a83d ad32 733e
00000390: 2982 7f3e 2d1b 88be b6a5 603e 3b41 4d3e
000003a0: 376f a53e 8f48 b93d ccbc 9b3e 8e3e ed3d
000003b0: 7d34 10be fcd7 4cbd b4d4 0d3d e2bc 7d3c
000003c0: 237c b2bd ea30 6f3e 6cf3 923e 6dde 933e
000003d0: ec59 183e 560e 8dbe 8f80 4ebe 03a3 28be
000003e0: f38e b2bd 6696 0abf 9647 949a 75c2 0b3e
000003f0: b8f2 063e 79a8 30be cd6c 803e cc1d 01bf

nw.2.bias f4 [64]
0.23334493 0.16159813 0.22753 0.18021569 -0.051290892 0.34260118 0.25234154 0.25216383
0.36648998 0.13997445 0.0525231 0.21079831 0.26577142 -0.016477613 0.2288218 0.29258406
0.3253437 0.24415113 0.35063985 0.02203207 0.37836638 0.24861814 0.4074845 0.15849635
0.40118673 0.20794423 0.30642936 0.07871463 0.4803777 0.42753795 0.24354285 0.022637926
0.21402584 0.33448166 0.21989857 0.09876978 0.40714636 0.26009756 0.014822627 0.32059497
0.018087707 0.14252388 0.016999235 0.13774388 0.017252252 0.3154366 0.33782575 0.21477768
0.30453438 0.39916292 -0.0020498163 -3.6498127e-06 0.2653424 0.23808597 0.20866427 0.019763801
0.09487787 -0.0986484 -0.069115885 0.41491106 0.3494655 0.4127494 0.30398193 0.0051821535
00000000: f9f1 6e3e fb79 253e a0fd 683e 768a 383e
00000010: 6616 52bd 6c69 af3e e932 813e 9e1b 813e
00000020: 93a4 bb3e 7655 0f3e 7622 573d 83db 573e
00000030: 3113 883e 0ffc 86bc 4350 6a3e 94cd 953e
00000040: 7393 a63e c102 7a3e 1187 b33e 9a7c b43c
00000050: 3db9 c13e c195 7e3e cfa1 d03e de4c 223e
00000060: 5968 cd3e 55ef 543e 4fe4 9c3e 2335 a13d
00000070: 11f4 f53e 41e6 da3e 4c63 793e 2c73 b93c
00000080: 9729 5b3e 2e41 ab3e 172d 613e cf47 ca3d
00000090: 7d75 d03e 822b 853e 9bda 723c 0625 a43e
000000a0: ac2c 943c c8f1 113e fb41 8b3c bb0c 0d3e
000000b0: 9854 8d3c e880 a13e 7ff7 ac3e aeee 5b3e
000000c0: eeeb 9b3e 155f cc3e 3656 06bb 4eef 74b6
000000d0: f6da 873e cfcc 733e 16ac 553e b2e7 a13c
000000e0: 544f c23d 2c08 cabd a18c 8dbd 396f d43e
000000f0: 24ed b23e e453 d33e 85a3 9b3e 0ecf a93b

nw.4.weight f4 [2, 64]
0.78065634 1.331893 0.59073406 1.1535418 1.0346508 0.8392069 0.854113 -0.84041715
0.95068085 0.6513612 -0.120183036 1.3127314 1.2233167 -0.30913287 0.74989176 1.3425765
0.8189392 0.8864412 1.3775066 -0.0793215 0.91491884 1.1225523 -0.5770447 0.74299
0.69320816 -1.0354604 1.3017956 0.75555634 0.6637757 0.8300752 1.2775135 0.4082243
-0.68952286 0.86782444 0.8369084 1.1665721 0.64177656 1.2381876 -0.8115048 0.7190382
-0.83346784 0.058932558 -0.08524175 1.2754958 -0.087837666 0.9638394 -0.45811602 0.9320889
1.5351963 0.51851624 0.0068956474 0.0034013926 0.6767903 0.90582454 0.10311953 -0.3203913
0.22151923 -0.9933761 -0.5465831 0.7096651 0.9335015 0.64645773 0.8839592 -0.25195488
0.95188427 1.2297916 0.85348487 1.2066435 -0.32725763 0.8324391 0.6619807 0.19309102
0.6199949 -0.05372974 -0.9674578 1.2566477 1.4818836 0.26576093 0.8061603 1.3814015
0.8615528 0.79810715 1.3171046 0.16036704 0.6419164 1.4256266 0.49341357 -1.3093666
0.7931204 -0.17846109 1.2770772 1.2835952 -0.19601208 0.76050764 1.1483256 -0.32597947
0.25602308 0.94248617 0.8195335 -0.26037693 0.63657004 1.4007689 -0.7922994 0.75218993
-0.98533744 0.79860294 0.16169631 1.1157522 0.16024014 0.62713796 0.66039735 0.6330823
1.3957918 0.8044852 0.0076357424 0.004939831 0.7476464 0.78545845 -0.7130395 -0.97413373
-0.66294056 -1.0086805 -0.46455875 0.8059741 1.0040759 0.7582051 0.93375 0.2706434
00000000: 18d9 473f 787b aa3f 593a 173f 42a7 933f
00000010: 706f 843f 43d6 563f 26a7 5a3f 9425 57bf
00000020: d25f 733f 9cbf 263f 8622 f6bd 9507 a83f
00000030: a495 9c3f aa46 9ebe e8f8 3f3f 8cd9 ab3f
00000040: 00a6 513f cfed 623f 2352 b03f 5073 a2bd
00000050: 1f38 6a3f cbaf 8f3f 34b9 13bf 9834 3e3f
00000060: 1776 313f f789 84bf 3da1 a63f 246c 413f
00000070: 34ed 293f cf7f 543f 9085 a33f c702 d13e
00000080: 9284 30bf be29 5e3f a13f 563f 3c52 953f
00000090: 784b 243f ee7c 9e3f c7be 4fbf e312 383f
000000a0: 265e 55bf 4463 713d 3a93 aebd 7243 a33f
000000b0: 3ce4 b3bd 2ebe 763f 2f8e eabe 619d 6e3f
000000c0: 5081 c43f 7bbd 043f e2f4 e13b e6e9 5e3b
000000d0: 2142 2d3f 1ee4 673f 5530 d33d 540a a4be
000000e0: f0d5 623e e54d 7ebf dfec 0bbf 9dac 353f
000000f0: f4f9 6e3f 417e 253f 264b 623f 3b00 81be
00000100: b0ae 733f d069 9d3f fc7d 5a3f 4b73 9a3f
00000110: 508e a7be bb1a 553f 9177 293f a7b9 453e
00000120: fcb7 1e3f b713 5cbd 50ab 77bf d5d9 a03f
00000130: 5dae bd3f d111 883e 8560 4e3f c4d1 b03f
00000140: b98e 5c3f c050 4c3f e296 a83f 4237 243e
00000150: a254 243f ef7a b63f b4a0 fc3e 5399 a7bf
00000160: f009 4b3f 81be 36be 4477 a33f d94c a43f
00000170: 64b7 48be a1b0 423f 55fc 923f c8e6 a6be
00000180: 7515 833e c646 713f f3cc 513f 2050 85be
00000190: 41f6 223f 654c b33f 22d4 4abf 858f 403f
000001a0: 133f 7cbf 3e71 4c3f b893 253e f8d0 8e3f
000001b0: fe15 243e 1d8c 203f cd0f 293f ae11 223f
000001c0: 4ea9 b23f bef2 4d3f 4035 fa3b 4ede a13b
000001d0: c165 3f3f ce13 493f c289 36bf d460 79bf
000001e0: 79b6 29bf 711c 81bf a5da edbe 5254 4e3f
000001f0: 8f85 803f bb19 423f 3d0a 6f3f c691 8a3e

nw.4.bias f4 [2]
0.27257136 0.25915155
00000000: 798e 8b3e 83af 843e
